CIFAR-pytorch/cifar_net.pth (torch, 251391 bytes, 10 tensors)

conv1.weight f4 [6, 3, 5, 5]
00000000: 6751 82bd 5928 e4bd 7b3b 4abe de80 13be
00000010: a736 3abb 3a25 23be 5440 5fbe 321d 8dbe
00000020: fb49 22be 6d73 a0be 9d7d 9dbe 444b 79be
00000030: 247f 8cbe 4d7e 74be a7dd 19be fe1a 72be
00000040: 99aa a0be 867e 17be 53b7 e1bd a0d9 2ebe
00000050: d0d2 09be 9979 98be 8122 8ebe 2498 2abe
00000060: 66f6 13be 80d3 e7bc 99a1 973d 1167 293e
00000070: d6f8 083e 6f95 8bbd d42d 183d 9314 923d
00000080: 020b 423d 1fb9 e43b e4f2 a73d aa2d bd3d
00000090: 81ff a63d ed2e 3d3e 9b41 3f3d 6bd3 c2bc
000000a0: 808d 253d 593c 273e fc5b 2c3e 794f 943d
000000b0: a1d7 8fbd 6527 353d d8f7 8ebc be3a 053d
000000c0: e269 16be 7aed 41be b15e 0b3e 2bb3 233e
000000d0: 6c23 243e 0146 f23d 0407 61bb cdfb 333e
000000e0: 7d5b 863e d753 413e dd2f 603e acb1 a33d
000000f0: bb1c 6b3e ba87 773e 008d 893e 939f 2a3e
00000100: e6f2 413e c68b 223e 6dba 9f3e c2f3 8e3e
00000110: f3e9 2b3e df32 4a3c 6d4d d93c b68f 383d
00000120: 04fc 3a3e 0625 a93b 9d6d 393d e6dd bfbd
00000130: 00f9 efbd f845 b8bc ef26 16bd 4f38 56bd
00000140: 0755 2fbd 0663 2e3d 1602 ef3c 8a34 ccbc
00000150: a67c 36bd 6bcc 51bb 5d32 86bd 3440 9a3d
00000160: c9fa a13c 153a d9bc 4e82 01bc 4bb1 5f3d
00000170: 6d52 0c3c 6e60 9d3d 6c95 d73d 4e9a 303c
00000180: f479 6cbb 810f f1bc f0b0 5f3a 48ec e53d
00000190: 0121 02be 573a 113d 3df1 013c 37b4 22bd
000001a0: bb03 1cbe f094 68bd e157 a83c 9a7f a4bd
000001b0: 578a 673d 7216 323d f66f 3cbd c134 55bc
000001c0: a6b7 e73a 8bca 2f3d e5c9 c4bd 2216 22be
000001d0: 43c4 01bd e0d5 c83a 70d1 5cbd fadc d3bb
000001e0: 9ca9 6abd b2fd aabd b510 99bc 37dd 9dbd
000001f0: bd33 7fbe 530e fb3d 2641 013e b63c a13d
00000200: 27ee 013e 35d5 243e f46b c23d 9703 6b3e
00000210: 84be 563e 3dea 903d d540 3c3d 2b48 073e
00000220: 845a 783e 48a9 473e c157 e53d 3c5e a53d
00000230: d684 313e afd8 c13d 0de6 413c 2503 553c
00000240: 221b 85bd 8356 023e b58f 7e3c 4f7e bdbc
00000250: 94e7 1cbc 9d34 0abd 8e5d 0dbe 73cb f03c
00000260: 7e23 22be 8e94 023e c07d afbe 5284 cebc
00000270: 348f 413e 26e0 1cbf b69d 9dbd 2fd8 b5be
00000280: cce1 8dbe 0304 29be 9069 a2be 0165 853e
00000290: ec7e 003e 6f6e 91be c9f5 47be f2e6 5b3e
000002a0: e304 663d cba9 eebc c1dd 863d 416d b23d
000002b0: 33e8 08be 714f 8ebe 85bd 19be 2ea3 823e
000002c0: b0ae f63d 3a9d 2e3d 9383 613e dae2 14be
000002d0: a7f6 b93e c5d7 c03e 522c c4be a522 a1bc
000002e0: 9153 83bd 696d 153e e861 863d e74f 4fbd
000002f0: 4e7b b63e 0718 903e 7223 82bc 6bf2 873b
00000300: 87cc fc3e 2f4b 9d3e d6a3 503e e57a c93e
00000310: f04b b23e 5e95 153e 1a78 4ebe 4c08 383d
00000320: 3949 82bd ab89 8ebd 89e8 d9bc 19c8 9d3d
00000330: 0f9d 52be 40e5 103c e98e 423e 9e23 08bf
00000340: 7325 93bd 82f0 07be c313 ebbd 7ce1 23be
00000350: cfc1 82bc 7838 9d3e 99a3 9d3d 8a0d 22be
00000360: f6c0 82be 7da1 a53e e7c3 083e fa80 193c
00000370: 9c55 523e 3c50 793c 5797 95bd 70ee 85be
00000380: 6270 68be 56e9 b5bd 5edb e53d e2de 653e
00000390: eca2 fabd 9690 f23d 6b83 12be 42d9 9b3e
000003a0: 8b5a 103e ab8c b8be 3a9c 0fbe 9fa5 253d
000003b0: 1016 a83e 2c84 ba3b 6aea b7be 8d70 e8bd
000003c0: dd12 4abd 7787 593e 011e 0f3c 6ebb 4abe
000003d0: 728b a1bd 6052 bbbc d004 2fbc 0277 40be
000003e0: 5aa4 24bd 0413 25bd 7c38 e4bd 4621 353e
000003f0: 4bb0 bb3c 0037 cfbe 71ab e7bd 1e41 90bc
-0.063631825 -0.11140508 -0.19749252 -0.14404628 -0.0028413923 -0.1593217 -0.21801883 -0.27561337
-0.15848534 -0.31338063 -0.30759898 -0.24345118 -0.2744075 -0.23876305 -0.1502596 -0.23643109
-0.31380156 -0.14794359 -0.110212944 -0.17075205 -0.13459325 -0.29780272 -0.277607 -0.166596
-0.14449462 -0.028299093 0.07403869 0.16543223 0.13376173 -0.068156116 0.03715308 0.071328305
0.04737378 0.006980076 0.082006246 0.09237225 0.08154202 0.18474932 0.046693426 -0.023782453
0.040418148 0.16331615 0.16831964 0.07241721 -0.0702355 0.044227023 -0.017452165 0.032526724
-0.14688829 -0.18938246 0.1361034 0.15986316 0.16029137 0.118297584 -0.0034336457 0.17576523
0.26241675 0.18879639 0.21893258 0.079928726 0.22960179 0.2417287 0.26865387 0.16662435
0.18940315 0.15873632 0.3119692 0.27920347 0.16788463 0.01234123 0.026526177 0.04505893
0.18260199 0.0051618842 0.04527055 -0.09368496 -0.11717415 -0.022494301 -0.036658224 -0.052299794
-0.042805698 0.042574905 0.0291758 -0.024927396 -0.044552468 -0.0032012712 -0.06552575 0.07531777
0.019772904 -0.026516953 -0.007904602 0.05461244 0.008564574 0.07684408 0.10526547 0.010778977
-0.0036083432 -0.029426338 0.00085331406 0.11226708 -0.12707902 0.035456028 0.007931051 -0.039722648
-0.15235798 -0.056782663 0.020549716 -0.080321506 0.056528416 0.043478437 -0.04600521 -0.013013066
0.0017678633 0.04291777 -0.09608821 -0.15828755 -0.03168131 0.0015322529 -0.053910673 -0.0064655514
-0.05729066 -0.0834917 -0.018684724 -0.07708209 -0.2492208 0.122585915 0.12622508 0.07872908
0.12688504 0.16096957 0.09493247 0.22950588 0.20971113 0.070759274 0.045960266 0.13211124
0.24253279 0.1949817 0.11198378 0.080746144 0.17335829 0.09465157 0.011834634 0.013001238
-0.06499316 0.12728314 0.015537192 -0.023131518 -0.009576697 -0.033741582 -0.1380522 0.029393887
-0.15833852 0.12751982 -0.34275627 -0.02520958 0.18902284 -0.61279523 -0.076960966 -0.35516497
-0.27711332 -0.16505437 -0.31721163 0.26053622 0.12548417 -0.28404567 -0.19527353 0.21474817
0.056157004 -0.029133698 0.06585265 0.08712245 -0.13369827 -0.27794984 -0.15013702 0.2551512
0.12045038 0.04263041 0.22022848 -0.14539662 0.36320993 0.3766462 -0.38315064 -0.01966984
-0.064124234 0.14592518 0.06561643 -0.05061331 0.3564095 0.2814333 -0.015886042 0.0041487715
0.49374792 0.30721423 0.20374998 0.39351574 0.3482356 0.1460776 -0.20163003 0.044929788
-0.06361622 -0.06959852 -0.02660014 0.07704181 -0.20567726 0.00884372 0.18999828 -0.5317935
-0.07184877 -0.1327534 -0.114783786 -0.16003984 -0.015961556 0.30707145 0.076972194 -0.15825477
-0.25537843 0.32349768 0.13355981 0.009369129 0.2054047 0.015216883 -0.073042564 -0.26158476
-0.2269912 -0.08882396 0.112234816 0.22448304 -0.12238106 0.11843984 -0.14307944 0.30439192
0.1409704 -0.3604482 -0.1402444 0.04044115 0.32829332 0.0056920256 -0.3592103 -0.11349592
-0.049334396 0.21243082 0.008735181 -0.19798061 -0.07887925 -0.022866428 -0.0106823 -0.18795398
-0.0401958 -0.040301338 -0.11143586 0.17688474 0.022911211 -0.4047165 -0.11311997 -0.017609175

conv1.bias f4 [6]
00000000: 4447 ab3e 10fb 843e c79c 143e 8e3a 32be
00000010: e178 55be 8b45 cfbe
0.3345281 0.25972795 0.14512931 -0.1740515 -0.20846893 -0.40482745

conv2.weight f4 [16, 6, 5, 5]
00000000: 5a13 f3bc f521 cfbd 7a41 3d3b 992e 0bbe
00000010: 52d0 34be 8e7a 4ebd 7845 bbbd f2d2 5fbb
00000020: c616 48bd 4209 dfbd 4009 e9bc ad7b c03c
00000030: dca4 a9bb bbb4 803b fd5d 56bd 7a76 4d3d
00000040: 21c5 26bd 9dbf 5abd c3c9 43bd 48c6 5cbd
00000050: a962 f43c 76f3 3bbd 3e56 4ebd 8fd2 66bd
00000060: abe8 973c 4d6e 283d 0d9e 593d 6e7a 0dbd
00000070: 167e 92bd 8f8d 13be 00c3 b23d 07e6 52bd
00000080: cbe8 363d df50 02bd ae5a 0ebe 9391 bf3d
00000090: 073a c2bc dbd1 683c 1a92 b93b b62f 513d
000000a0: 7eae 103e 5abc bd3c 13ac b53d cdf6 833b
000000b0: 672b e33d fd6b c13d 82f4 183e ff44 013e
000000c0: 6b21 303e 683d 733e f059 693a b1d9 90bd
000000d0: 5c2e fc3c 53f3 aa3d 52a1 483e a62b d6bd
000000e0: a239 2ebd 6fa1 973d 98d0 473c a294 2b3e
000000f0: 0bc8 2f3d c69d 883d 38b3 42bd ad72 a4bd
00000100: a18d ca3d a764 80bc d407 8f3d e4ed 34bd
00000110: 06c3 04bd 2894 98bc 6f7f 24bd cca9 aebc
00000120: 5b4e 503d 9464 14be 653f 61bd 960e ccbc
00000130: 3ac4 75bc 32fa 1f3e 6d60 583e 7eab d03d
00000140: ca07 b53d f512 06bb 0747 60bd de5e 8a3d
00000150: 2c7b 823e 9f16 d73d 37b3 4a3e 38b2 713d
00000160: cd67 8fbd cea7 863e 4273 18bd 7bcd 8fbc
00000170: 9602 353e c236 2dbe a717 6d3b b4fd 0dbe
00000180: 53f8 f8bd 47be 80bd 4048 0ebd 9b82 67bd
00000190: 677a 23bd bb18 a9bd 4066 fbbd 6ae0 833c
000001a0: 72ba 76bd 7cec 9c3b a674 5d3c 2481 40be
000001b0: 299b 34be 8bdb 83bd e08b d93c e870 a03d
000001c0: a331 c0bd 5d65 1dbe 357c 09be dab7 623d
000001d0: 7dfe 29bc dda0 1f3d 02ea be3b bdea a3bd
000001e0: 4b99 163d ba07 c2bd c569 ffbb 2752 0d3d
000001f0: 7d99 99bd 45d7 953e 718e bf3e 427d 1b3e
00000200: d005 7bbe bcd6 87be 47c2 2f3d a6cc d63d
00000210: 9ca0 b73d 04a7 12be 39d0 51be d835 d73c
00000220: 1a4a 6ebc 59be 0ebd 782e df3c 03b9 dabd
00000230: 2bd0 9c3d db22 07bd e35b 053d 33b8 0ebd
00000240: 888c febd 967b 65bd 2f64 01be af23 febc
00000250: 4681 00bd cb3a 66bc 208a 543d 2bb3 41bd
00000260: 6c8e 07bd d128 a1bd 64c7 afbd ae60 283e
00000270: 362e e93c b25a 49be 0d62 a5bd 4b2b b1bc
00000280: e23f 0b3e ea5b 8fbd c208 21be 9db3 76be
00000290: 13d4 98bc 04da 483e dcd1 6c3d 92d1 fabc
000002a0: 38a5 5bbe 1e19 e0bd c75a 073e 131c bf3d
000002b0: 3db8 bfbc a1c4 17be 90d0 673c 3801 843c
000002c0: 15ba 633d 19d7 543d a127 a8bd 9eb2 dd3d
000002d0: 3df6 ee3d 3505 093e 572a 7bbd efe7 d8bd
000002e0: 90ce 433d 7d8e 583e 050f c83d 8d48 d3bc
000002f0: 236e dfbd bb35 f1bd 22d6 333e cb13 ad3d
00000300: fb06 8bbd b0b6 70bd 979c 06be abc7 0f3e
00000310: 53a3 133d d522 15be 720c 1bbe e74a 3bbe
00000320: 0921 17bc 8eb9 3fbe da2e 8cbd ea69 37bd
00000330: f591 2dbe 6a18 6cbd ee5a d6bc 89e0 c4bd
00000340: 16a5 0abe 239b 2dbe 6f09 23ba f3a7 08be
00000350: 40e8 ebbd f072 81bd c3a4 33bd de2f c7bb
00000360: a170 15be 94cd cabc 2a91 143d 357d af3d
00000370: dc5f a1bc e828 4abb ce08 5e3d 3a78 763d
00000380: 2ce5 fa3d 58c4 833d 86eb 313d 7e1e 143d
00000390: 6f05 983d 6d5f 7cbd 017e 153d 579e d13d
000003a0: 21f7 4c3c f6bb 333d c0b7 6b3d d78b df3c
000003b0: dbda 16bd e003 9a3d 94ec d33d faca af3d
000003c0: d1bc 5f3d 10af c13d c56d c43d a6a0 8c3d
000003d0: a7ca e03d f6c7 673d a454 243e 3428 f43c
000003e0: 0b69 e53c 62fb 0b3e 5872 4c3d 9c46 7e3c
000003f0: 9a7b c8bc bbcf 27bc 972a 063c e0d8 a4bd
-0.029672313 -0.10113899 0.0028878138 -0.13591994 -0.17657593 -0.050409846 -0.091441095 -0.0034152833
-0.048849843 -0.10890438 -0.028446794 0.023496473 -0.0051771235 0.0039277948 -0.052335728 0.050161816
-0.04071534 -0.053405393 -0.047799837 -0.053900033 0.029832201 -0.04588648 -0.050375216 -0.056353148
0.018543562 0.041120816 0.053129245 -0.034540586 -0.07152955 -0.14409469 0.087285995 -0.051488902
0.044655602 -0.031815406 -0.13901779 0.09353938 -0.02370931 0.01421019 0.0056631686 0.05107089
0.14129063 0.023161102 0.08870711 0.0040272237 0.11092263 0.09444425 0.14937022 0.12623976
0.17200248 0.23753893 0.00089016464 -0.07072771 0.030783825 0.08347192 0.19592789 -0.10457544
-0.04253543 0.07403838 0.012195729 0.16755918 0.042915385 0.06670718 -0.047534198 -0.08029685
0.09890295 -0.015672995 0.06983915 -0.044172183 -0.03241255 -0.018625334 -0.040160593 -0.0213212
0.050855976 -0.14491493 -0.0549921 -0.024909299 -0.015000397 0.15622786 0.21130534 0.101889595
0.08839376 -0.0020458077 -0.054755237 0.06756376 0.25484598 0.105023615 0.19794928 0.059007853
-0.0700222 0.262999 -0.037219293 -0.017554035 0.17676768 -0.1691542 0.0036177428 -0.13866311
-0.12156739 -0.062862925 -0.03473687 -0.05652104 -0.039911654 -0.0825667 -0.12275362 0.01609822
-0.0602364 0.0047889333 0.013516581 -0.18799263 -0.17637314 -0.06438359 0.026555955 0.07834035
-0.093844675 -0.15370698 -0.13426287 0.055351116 -0.010375616 0.03897177 0.0058262357 -0.08003757
0.036767285 -0.0947413 -0.007794591 0.034502175 -0.07499979 0.292658 0.37413362 0.15184501
-0.24513936 -0.26531017 0.042909887 0.10488252 0.08966181 -0.14321524 -0.20489587 0.026270792
-0.014544034 -0.0348495 0.027243838 -0.106798194 0.076568924 -0.032992225 0.032558333 -0.034843635
-0.12429148 -0.056026064 -0.12635873 -0.031022875 -0.031373285 -0.014052103 0.05188954 -0.04729001
-0.03309481 -0.07869113 -0.085829526 0.1644313 0.028464418 -0.19663504 -0.08075342 -0.021627089
0.13598588 -0.06999953 -0.15725997 -0.24091955 -0.018655812 0.19614416 0.057817325 -0.030617509
-0.21449745 -0.10942291 0.13218223 0.093315266 -0.023403281 -0.14821102 0.014148846 0.016113862
0.055597384 0.051962946 -0.082106836 0.10825084 0.1166806 0.13380893 -0.061319675 -0.10591113
0.047804415 0.21148105 0.0976849 -0.02579143 -0.10909679 -0.117778264 0.17562154 0.08451041
-0.06788441 -0.058767974 -0.13145672 0.14041011 0.03604443 -0.14564069 -0.15141466 -0.18290292
-0.009224185 -0.18723127 -0.06844874 -0.044778742 -0.1695021 -0.05764047 -0.026166406 -0.09613139
-0.13539538 -0.16953711 -0.0006219362 -0.13345318 -0.115189075 -0.06320751 -0.0438583 -0.0060787043
-0.14593746 -0.02475623 0.03627125 0.08568803 -0.01969903 -0.0030847136 0.054207616 0.06017325
0.12250742 0.06433934 0.043437503 0.036161892 0.074229114 -0.061614443 0.03649712 0.10235279
0.012510092 0.043880425 0.057548285 0.02728836 -0.03682981 0.0752027 0.10347858 0.085836366
0.05462343 0.09457219 0.095912494 0.06866579 0.10976153 0.056587182 0.16047913 0.029804327
0.02800419 0.13670114 0.049913734 0.015519764 -0.024473 -0.010242398 0.008188865 -0.08049178

conv2.bias f4 [16]
00000000: 5f2e 0cbe 8b66 be3e 1579 00bf a61a 103f
00000010: fb6c 163d 53a5 b7be d6c7 aa3d ba95 f6bb
00000020: f56b f73e 716e 0b3f 9bb7 6fbe 9827 b2be
00000030: fa61 533f fda6 513e 5f9c a8be 4551 4dbd
-0.13689564 0.3718761 -0.50184757 0.5629066 0.036725026 -0.3586832 0.08338897 -0.007525173
0.48324552 0.54465395 -0.23409884 -0.34795833 0.82571375 0.20473857 -0.32931802 -0.050126333

fc1.weight f4 [120, 400]
00000000: 977f ebbc e7ab 9dbc f388 7d3d df01 eb3c
00000010: 80a2 403d 58ed 7b3b 03a2 c1bc 6a01 42bc
00000020: e01d a93c adb5 813c e2d0 3b3c 83b9 7fbd
00000030: ba8d a23c 1de5 3ebd 7f54 aa3c 46b5 0d3d
00000040: c52b f23c 0211 1cbc 62b5 dd3a 70c0 623b
00000050: 1538 50bd baa5 213b 60c6 f0bc 6dd6 d6bb
00000060: 8149 ca3b 1872 333d 0bda 73bd d9af 26bd
00000070: d975 11bd a721 793d 494c f93b f00b ffbc
00000080: 7563 f73c 8d4f ce3c e4a2 6f3c 6cf4 863d
00000090: ddf5 573d 58f5 0bbd 33f5 3a3c 561d 91bc
000000a0: 440a 95bc 9f36 f03c f3a4 dc3c 9347 893b
000000b0: 34da 40bd 91c8 833d c4eb bd3c f015 273d
000000c0: 18db a3bc f101 47bc 60ff d33c 9c87 083a
000000d0: d6b9 87bc 3424 a8bc 79c7 113b 6f22 153b
000000e0: dbaa 2a3b e961 4cbd 04b7 05bc 6e83 95bc
000000f0: 9b31 54bd e1d9 cebc d983 cf3c 88e2 7a3d
00000100: c425 b5bc 169a 303d 5691 07bd 32a6 0b3d
00000110: be84 c9bc 018f 90bd 68ef b83c b5b4 46ba
00000120: d78e 173c 998c e1bb 150e 24bd 2ab7 dfbc
00000130: 8528 f93b 05ad eabb 70c3 a73c 25d0 603c
00000140: 2cb3 d2b9 d36d 64bc 5f5c 3cbd 6b74 47bd
00000150: 4541 cc3c 76be ab3c c981 d8bb 16fb cfbc
00000160: c387 5ebd e7e0 01bc dc99 583a 8437 0e3d
00000170: 8d84 0fbd ee20 b3bc add7 cb3b 8a07 da37
00000180: 0a6d b13c d400 033d 89f9 8e3c ddf5 b23c
00000190: bde2 063c 79b0 b1bc 5654 603d 8cc6 d9bc
000001a0: 96c3 64bd 089d 833d 9b9a 03bd be84 0e3d
000001b0: 0148 2a3d 207c dbbc fb1a c13c c7c6 f73c
000001c0: dc99 19bc c488 05bd 4a8d 85bc 820e 563c
000001d0: 4cf7 3c3c fc46 83bb d200 14bd aae1 c23c
000001e0: 731b 333d 3310 583d a328 8a3d 6e1d 64bc
000001f0: 2cdc d73b 31f0 0d3c 5c11 963d 7dfd e4bb
00000200: 6444 98bc 61d5 e4bc 7f11 fcbc 9f94 423c
00000210: b64c 06bb 570e debb 2c63 033d ca55 09bd
00000220: f455 85bb 9b30 c2bc e840 dabc b24a 4fbc
00000230: 9135 4ebd 0127 fdbc 25b2 76bc c42d 8cbb
00000240: 6a47 33bd 87c6 78bc 2768 cabb f559 703c
00000250: 7e4a f53b 5614 09bd 882c 963b f5cc 3a3d
00000260: 9edb 9abc f9f4 063d 482f 533d 708a 263c
00000270: a0ab 3d3d 2c86 98bb b97d 143d d3e7 e6bc
00000280: 8ebd 0f3d 3631 c03c f2d9 44bd 0163 2c3d
00000290: 0ad4 593d 8db4 b33c aa54 95bc 24a6 30bd
000002a0: 5a9d ebbc 1b82 72bd e1fb 0bbd a86d e33c
000002b0: 3fd3 4f3d 1696 253d 9ac9 63bd 0a34 5e3d
000002c0: eaaa d2bb ac33 38bc f4d6 36bd 56e2 ed3c
000002d0: 8ad7 8c3d 57ea 6c3d a395 653d 2c25 363d
000002e0: ad51 1ebd 3d39 d2bb 3dd3 d43b ce40 683d
000002f0: 6353 663c 49f5 9bbc 487b d0bc 3260 1a3d
00000300: cceb bd3c f8b7 49bd 6854 4c3d 4247 3e3d
00000310: 8b72 13bc 2784 55bc 5b86 49bd 48ad efbb
00000320: af35 7dbd ca51 1fbd c583 593d 97a7 823d
00000330: 5aa8 033d b1b1 373c 6dc2 e23a d07b e6bc
00000340: d287 b8bc 873f 663d 1ad1 aebc 0471 b4bc
00000350: 130c b6bb f82b 03bd 70b8 693d c3aa a93c
00000360: 53e3 943c f37c 27bd b645 973c a642 7f3d
00000370: 7338 35bc b03d 4fbd e412 f7bc 53e5 483b
00000380: be58 73bb 1a3d 6fbd 6816 0a3d 6b76 123d
00000390: 0d47 4ebd 927d ecbc fac7 45bd a400 da3c
000003a0: d9c8 6b3c f848 f03c 3e5f 09bd 737a 72bc
000003b0: bdc4 313d 4b4e 323d 7660 e93c 4a48 ddbc
000003c0: c898 a9bc 1919 2fbd e3e1 34bd 17d9 ca3c
000003d0: 5d82 0f3c 42ae 143d f3ce ed3c aacc c73c
000003e0: 57ea 02bc c8cf 8d3c 659b 40bd 38d1 d63b
000003f0: f9a0 d73c d802 3ebd c8ec c9bb 8b65 a4bd
-0.028747363 -0.019247008 0.061898183 0.028687416 0.047029972 0.0038441028 -0.023636824 -0.011841157
0.020644128 0.0158337 0.011463376 -0.062432777 0.019842971 -0.04660522 0.020792244 0.034596704
0.029561887 -0.009525539 0.0016915018 0.0034599565 -0.050834734 0.002466543 -0.029391468 -0.0065563233
0.006173313 0.04380998 -0.059534114 -0.040695045 -0.03551278 0.06082311 0.007607971 -0.031133622
0.030198792 0.025184417 0.0146262385 0.065895885 0.052724708 -0.034169525 0.011410999 -0.017714184
-0.018193372 0.02932292 0.026934123 0.0041894405 -0.047083095 0.064347394 0.02318371 0.040792406
-0.020001933 -0.012146459 0.025878608 0.00052081957 -0.016568106 -0.020525075 0.002224414 0.002275612
0.002604178 -0.049898062 -0.00816131 -0.018251147 -0.05180512 -0.025250377 0.025331425 0.061251193
-0.022112735 0.043115698 -0.033097588 0.034094043 -0.02459943 -0.07058526 0.022575095 -0.0007580028
0.009250364 -0.0068832156 -0.040052492 -0.02730902 0.0076037073 -0.007161739 0.020478934 0.0137215005
-0.00040187815 -0.0139422 -0.04598653 -0.04869501 0.024933467 0.020964842 -0.0066072685 -0.025388282
-0.05432869 -0.007927156 0.0008262673 0.034720913 -0.03503852 -0.021866288 0.006220779 2.5991136e-05
0.02165844 0.03198321 0.017452972 0.021845752 0.00823277 -0.021690594 0.05476793 -0.026583932
-0.055850588 0.06426436 -0.032129865 0.03479456 0.041572575 -0.026792586 0.023572436 0.030246152
-0.009375062 -0.032601133 -0.016302723 0.013064982 0.01153357 -0.0040062647 -0.036133595 0.023789246
0.04372735 0.052749824 0.06746032 -0.013923032 0.006587526 0.008663223 0.0732753 -0.006988226
-0.018587299 -0.027933778 -0.030770062 0.011876254 -0.00204925 -0.006776612 0.032077 -0.03352908
-0.0040690843 -0.023704818 -0.026642278 -0.012652086 -0.050344054 -0.030902388 -0.015057121 -0.0042779166
-0.043769278 -0.015184051 -0.0061769667 0.014669885 0.007485687 -0.03346666 0.0045829453 0.04560562
-0.01890355 0.032948468 0.051558763 0.010164842 0.046306252 -0.0046546664 0.03625271 -0.028186714
0.035092883 0.023460966 -0.04805941 0.042086605 0.05318073 0.02193668 -0.018228848 -0.043127194
-0.028761555 -0.05920611 -0.034175757 0.02776225 0.05073857 0.040426336 -0.055612184 0.054248847
-0.006429066 -0.011242788 -0.04463859 0.02903859 0.06877048 0.05784067 0.056050908 0.044469044
-0.03865211 -0.0064155147 0.006494908 0.056702428 0.014057967 -0.01903786 -0.02544941 0.037689395
0.023183726 -0.049247712 0.049885184 0.046454675 -0.008999477 -0.013031996 -0.049200397 -0.007314358
-0.061818775 -0.03889636 0.05310418 0.063796215 0.032142974 0.0112117985 0.0017300375 -0.02813521
-0.022525702 0.05621293 -0.021339942 -0.022026546 -0.0055556386 -0.032024354 0.05706066 0.020711308
0.018174803 -0.040890645 0.018465858 0.06231942 -0.011060822 -0.05059594 -0.030160375 0.0030654266
-0.0037131752 -0.05840788 0.033712775 0.035757463 -0.050360728 -0.02886847 -0.048286416 0.026611634
0.0143911475 0.02933167 -0.033538096 -0.014799702 0.043400515 0.043531697 0.028488379 -0.02701201
-0.020702735 -0.042748544 -0.044160735 0.02476172 0.008759108 0.036298998 0.029029345 0.024389584
-0.007990441 0.017310992 -0.047023196 0.0065557025 0.026321875 -0.04638943 -0.0061622597 -0.0802718

fc1.bias f4 [120]
00000000: 34d3 e0bc 852f f33d 13f0 f8bd dbf4 743d
00000010: b3b1 503e 691d a83d f069 273d f7f2 f93d
00000020: 856c 3abd 1803 c03a f134 8dbd 7dbf 863e
00000030: e249 a4ba e2cc 81bb ff0f 493d 9ddc 34bd
00000040: fe96 ae3d 611e 10bc 6a46 213d 5a03 263e
00000050: 51b5 243d 5c2e 78bd c8ae 74bd 9202 b6bc
00000060: 16a7 9cbd fd73 b3bc 5b34 8fbc 6de4 25bd
00000070: 9348 df3d 1729 37bd e027 76bd b499 953b
00000080: fdfb 9b3d 40d8 5b3d 4450 893c 2716 4dbd
00000090: 0e39 873d dc6c 08bc 82af 4f3e b78d cabc
000000a0: f0c5 ad3d a7b9 bebc 84d9 25bd f93f 58bd
000000b0: 2b92 123e 3341 9dbc 4829 23bd 601f 513d
000000c0: 1f89 2d3e 7e8f 8ebd bb9b 063e dea0 633c
000000d0: bac0 79bd 2c9f 01bd f8db 06bd 04f8 1d3e
000000e0: 330f 193d 7c85 ca3d f416 5b3c 1e5e b5bd
000000f0: cb14 603d 5a2a 3abc 248c 25bd fb6a 23be
00000100: 4f21 783d 88b8 d43d 6203 e93c d997 d73d
00000110: b291 37bc 937d 023d a96b 94bc ff87 94bc
00000120: 3fa7 3e3c 4f70 57bd efbe 0fbd bae7 843d
00000130: a89d 473e 6107 71bd eef9 b93d 5e59 19bd
00000140: 1d9d b23d be82 da3b 06bb d539 a9b1 c93c
00000150: 0139 c33d 1b38 5bbc 8282 44bd e771 163d
00000160: e90e eebd 1b1b d63b 3281 e83c 773b 8fbc
00000170: 8ab2 223d faed 6a3d ea7c d7bc 70fc 07bd
00000180: 7d4d 29be d4ea 573b 078d 3cbd f5a2 953c
00000190: cfd9 123d 90ab 853d f1a7 643d 6435 6e3d
000001a0: 7700 25bb ebf1 0c3c a0e5 3bbd a42c d6bc
000001b0: b7ba f43d 76a7 dc3c 5b65 2e3d 88b6 c73d
000001c0: d01f 033d b7a3 253d b45d a83d d27c 90bc
000001d0: 11f6 8d3d e634 a03d 6f58 3c3e 84f3 03bd
-0.02744446 0.11874298 -0.121551655 0.059803825 0.20380287 0.082087345 0.040872514 0.12204545
-0.04551365 0.001464936 -0.068948634 0.2631797 -0.0012534226 -0.0039611915 0.04908752 -0.044155706
0.08524893 -0.008796305 0.039373793 0.16212216 0.04021198 -0.060591087 -0.059736997 -0.022218022
-0.076490566 -0.021905893 -0.01748102 -0.040501047 0.10902514 -0.04471692 -0.06009662 0.004565442
0.07616422 0.05367303 0.016761906 -0.050069954 0.06602679 -0.008326735 0.20281795 -0.024725778
0.08485019 -0.023281885 -0.040490642 -0.052795384 0.14313571 -0.019196128 -0.03983429 0.051055312
0.16946839 -0.06960963 0.13145344 0.013893334 -0.060974814 -0.03164594 -0.032924622 0.15426642
0.03736801 0.098887414 0.013372172 -0.08855842 0.05470733 -0.011362636 -0.04041685 -0.15958779
0.06057864 0.10386759 0.028443996 0.105270095 -0.01120417 0.03185804 -0.018117743 -0.018131254
0.011636554 -0.05259734 -0.035094198 0.06489511 0.19493735 -0.058844928 0.090808734 -0.037438743
0.08721373 0.0066684177 0.0004076587 0.024620848 0.09532357 -0.013380076 -0.047976024 0.03672972
-0.11623938 0.006533993 0.028381918 -0.01748441 0.03972105 0.05735586 -0.02630468 -0.033199728
-0.16533466 0.0032946365 -0.04603293 0.01826618 0.03585225 0.065268636 0.055824224 0.058156386
-0.002517728 0.0086026 -0.045873284 -0.026144333 0.119496755 0.02693532 0.04257713 0.09751612
0.03201276 0.040439334 0.082209975 -0.017637644 0.06931699 0.078225896 0.1839311 -0.032214656

fc2.weight f4 [84, 120]
00000000: d69c 6fbd c944 483b be33 ca3c 6d48 803d
00000010: eff5 243d d644 07bd df09 0f3c cfba d53d
00000020: 37b9 583a 6b2d a1bd 4fa7 e33c bc7e 4d3d
00000030: 0bba 39bd f6fd e33a e71a 26bc db5e 9c3d
00000040: 2fd5 72bd 16ef d9bc 8821 9dbc 3c36 aabd
00000050: 2f8f e9bc e5a5 3b3d 5fa2 7a3c 7e66 a8bd
00000060: 8810 07bd 6b4e 703d 812b 44bd 5d87 8e3c
00000070: d31c e2bc 4d01 f73c b90a b2bd 6721 923d
00000080: 7277 873d 585e 58bc 0270 d8bc 390e acbb
00000090: c3b0 883c 450b 31bd 757f 25bd 7d4a bbbd
000000a0: 9f58 1a3b d712 a23d b913 adbb b442 5bbc
000000b0: aebc 153d 9236 063d 128b 61bd 8ef5 10bd
000000c0: 499d a6bd 6ede 6ebd 803e f8bc af9d 82bb
000000d0: 37a4 a8bd 487c 123d 319a 893d e17b 8fbd
000000e0: 1323 dd3c 70e8 c13d a06a 8b3d d58f 07bc
000000f0: b837 8ebb 1923 c2bd 1c18 94bd 4ec0 f0bb
00000100: ae5a 2a3d 1dbf 40bd abd0 643d 8d29 a6bd
00000110: 92fc dc3c 8896 66bd 836e 1f3d a3b0 883b
00000120: da84 2cbc 71d2 bbbc 702d 543d 7f05 a33d
00000130: f2be bf3c 912c 9abd 7ab6 3abd 5e65 003b
00000140: 6e6f fa3c 7ebd 06bd a4e3 cabd d375 65bd
00000150: 3fc4 05bd ee68 67bd 85e8 733d f420 773d
00000160: de99 aabd 4272 af3d 22fa 6fbd ddba cabd
00000170: 1488 113d daed 9d3d d804 0b3d e42d 443d
00000180: b851 03bd 951b babd 6f81 b63c bd2c ddbc
00000190: a0f6 52bd 2ee8 d7bd c621 7fbd 4b7c 433c
000001a0: 8b4e 5aba f3de b6ba a159 983c aa5f c53d
000001b0: 57e0 673c 8648 54bd 3a82 40bd 1d91 ed3d
000001c0: bc21 be3c b3ab 78bd 26a0 84bc 26d9 63bd
000001d0: f772 1d3c 86e7 d33c 94a9 a33b e872 4bbd
000001e0: 82a0 913c 6abc 91bd dec7 ccbc 58d2 0abd
000001f0: c5b0 20bd 4df3 4abd 6bde ac3d 6cf0 0d3d
00000200: 9417 8dbc 68af 57bd dadb 853c 249b 863d
00000210: 974e 91bd 93f7 b63d 51e0 45bd 35c6 8cbd
00000220: 15ff 94bd 6c21 7e3d 2cac d93b 2c2b 3abd
00000230: ae3c cabd e750 62bb d6cd 1e3d 0820 ba3b
00000240: 1756 97bd 92c0 96bd 720b f63c 6041 9bbd
00000250: f72a b0bd 1ad8 8bbd 3ed3 93bd 15d4 37bd
00000260: 379b 2dbc 3800 1bbd 01a3 4dbd c3a7 8cbd
00000270: 4f4e acbd 7ea3 e93c 9337 bd3d 496f 343d
00000280: 9154 a1bc c451 953d 096a 0bbd 8bdc 75bd
00000290: 1c60 a3bd be71 65bd b382 fc3c 5790 95bd
000002a0: 1209 893d 9b1c b93d b46d 12bd 4ce0 863d
000002b0: 9137 22bd 6e76 9f3c d143 8abd 4e76 cfbc
000002c0: 4018 913d dda2 6a3d 37f9 843d f014 f63c
000002d0: 12e5 83bd a9d0 253c e2bd d8bc d721 4d3d
000002e0: 5ebb 92bd f230 45bd 12c6 44bd 90ff 8bbd
000002f0: 95a5 ae3d cd15 c4bc 3d91 0ebd 0583 0f3d
00000300: bd2a cb3c e612 93bd 950e 0dbc 1875 a53b
00000310: cbab cd3a e465 a1bd 53df 7fbd f4ab c7bc
00000320: 3dc0 c93d 2793 7d3d 8ab9 7ebc 2062 fe3c
00000330: 35c8 863d 1e19 be3c 9ae7 8d3d 81d7 47bd
00000340: d93b 2e3d 09fb d7bb b578 edbc 0a8f 1b3c
00000350: 57a3 9dbc 1f18 533d e5ec acbd b69b 873c
00000360: 1fd5 11bd 9486 b03d 2b1e 853d 73b0 d3bc
00000370: d80c bb3d 331c 1c3d 0986 9b3c de54 58bd
00000380: 0a6f b63d 10cb 873a edad 81bd b255 f03c
00000390: 6511 a1bd f6de 883d 2430 a63d 5535 44bc
000003a0: 06b9 b43c 972c b4bd ee0d 55bd 498e 893d
000003b0: 6cb1 833c d373 893d a4da 99bd c9a8 a03d
000003c0: c782 22bc 3d3d 8cbc 7968 01be bb81 f0bc
000003d0: 5d1b 6bbc ab97 cbbd 2833 023d 775a 883d
000003e0: 5592 28bd ed42 e63c 34d6 a33d 67cc 1b3e
000003f0: f117 313b 0e1b 97bc fdd2 30bd 4694 94bd
-0.05849918 0.0030558577 0.024682876 0.06263814 0.040273603 -0.03302463 0.008730381 0.104360215
0.0008267345 -0.07869991 0.02778974 0.05016969 -0.04534344 0.0017394412 -0.01013825 0.0763528
-0.05928534 -0.026603263 -0.019181028 -0.08311126 -0.028510658 0.045812506 0.015297501 -0.08222674
-0.03297475 0.058668535 -0.04789305 0.01739853 -0.027601635 0.030151987 -0.086934514 0.07135277
0.06614579 -0.013206087 -0.026420597 -0.005250719 0.016685849 -0.043223638 -0.040404756 -0.09145067
0.0023551357 0.0791375 -0.005281892 -0.0133826025 0.036556892 0.032766886 -0.05506427 -0.03539043
-0.081354685 -0.058317594 -0.03030324 -0.0039860825 -0.082344465 0.035763055 0.06718863 -0.0700605
0.026994264 0.09468162 0.068074465 -0.008274038 -0.0043401383 -0.094793506 -0.07231161 -0.0073471433
0.041590385 -0.04705726 0.055863064 -0.08113394 0.026975904 -0.0562959 0.03892375 0.0041714474
-0.010529721 -0.022927495 0.051801145 0.07960033 0.02340648 -0.075280316 -0.04558418 0.001959167
0.030570712 -0.032895558 -0.099067 -0.05602057 -0.032657858 -0.056496553 0.05954792 0.06033416
-0.08330129 0.08566715 -0.058588155 -0.098989226 0.035530165 0.07711382 0.033940166 0.047895327
-0.032060355 -0.09087292 0.022278516 -0.026998872 -0.05150473 -0.10542332 -0.06228807 0.011931489
-0.0008327744 -0.0013951942 0.018597426 0.09637387 0.014152608 -0.051826976 -0.046999194 0.11599944
0.023209445 -0.06071062 -0.016189646 -0.05562701 0.009609929 0.025867235 0.0049945805 -0.04967013
0.017776731 -0.07116015 -0.024997648 -0.033892006 -0.03923108 -0.049548436 0.0844086 0.034653112
-0.017223157 -0.052657515 0.016340185 0.065725595 -0.07095068 0.0893394 -0.048309628 -0.068737425
-0.072752155 0.062043592 0.006642839 -0.04545133 -0.09874855 -0.0034533085 0.03877052 0.005680088
-0.07389467 -0.073609486 0.030034754 -0.07580829 -0.08601945 -0.068283275 -0.072180256 -0.04487999
-0.010596088 -0.037842005 -0.05020428 -0.068679355 -0.08413374 0.028520342 0.092391156 0.044051442
-0.019693645 0.07290986 -0.03403667 -0.06002478 -0.07977316 -0.056016676 0.030824041 -0.07302921
0.06691183 0.09038659 -0.035749152 0.0658575 -0.039603774 0.019465651 -0.06751216 -0.025324967
0.070847034 0.057284225 0.064928465 0.03003928 -0.06440176 0.010120549 -0.02645773 0.0500811
-0.07164644 -0.04814238 -0.048040457 -0.06835854 0.08527676 -0.023936177 -0.03480648 0.03503706
0.024800653 -0.07181339 -0.008609434 0.005049359 0.0015691457 -0.07880762 -0.062468838 -0.024373986
0.0985112 0.061907914 -0.015547166 0.031052649 0.06581155 0.023205336 0.0692894 -0.048789505
0.042537544 -0.006591205 -0.028988222 0.009494552 -0.019242926 0.051536676 -0.084436215 0.016553741
-0.03560364 0.08619419 0.06499895 -0.025840973 0.09133309 0.03811283 0.018984811 -0.05281531
0.08907898 0.00103602 -0.06332002 0.029337738 -0.07864646 0.066831514 0.08114651 -0.011975606
0.022060882 -0.08797567 -0.052015238 0.06716592 0.016075812 0.06711545 -0.075124055 0.07844693
-0.009918875 -0.017119044 -0.1263751 -0.029358735 -0.014349786 -0.09941038 0.031787068 0.0665788
-0.041155178 0.028108085 0.079998404 0.15214692 0.0027022327 -0.018445518 -0.043169964 -0.072548434

fc2.bias f4 [84]
00000000: f591 88bd ea7b d83b 159a 303e d5b0 993e
00000010: 082c 113e d37a 263d f296 2c3e 1fb1 4a3d
00000020: 8c2e a83d d27c a0bd 1d43 c4bd fe61 61bd
00000030: a554 2e3d f479 a7bd 076d 193b 1378 22bb
00000040: da28 3b3e 2ea0 803d 3085 00bd a828 74bd
00000050: 6b19 893d b086 0c3e 85eb 743d 227d 693e
00000060: 9276 b8bd 9b4d be3d b0ae fa3b e11f 94bd
00000070: fceb 553d 068c 26bb 40d5 e5bc abad 87bd
00000080: a79a 423e 48d0 ac3d 9415 8f3d c5ab 71bd
00000090: 3ed2 303d 1baf fdbc aade 05bc 011c 243e
000000a0: 5243 283b 8ec1 9f3e 8adc 203e 4191 c9bc
000000b0: e9e0 dc3c 7b7d 163e 4209 7e3d 08ea da3c
000000c0: fef3 59bd 886a 24bd 6039 8c3e d027 983e
000000d0: 7562 92bd ebde 0b3e 7974 903e 663b 8ebc
000000e0: 3103 803c f3e5 cebc 0a23 15bc 128c c1bd
000000f0: 666c 223d c6a1 bd3e 88c2 b1bd 9142 1a3e
00000100: ab2d ba3d 329a 773e 64cb 50bd d9fe 55bd
00000110: e6ae 413e 974f f7bd 1246 1d3e e9be 5abe
00000120: 5017 83bd 8ff4 023d 741f 713e 72ee 403e
00000130: eaba 9e3c 0855 3d3e d2fc ad3d 21fa 253e
00000140: de78 e6ba f8a0 f13d 1107 7bbd 63f1 ed3a
-0.06668464 0.0066065686 0.17246278 0.30017725 0.14176953 0.040644478 0.16854456 0.049485322
0.08212003 -0.078363076 -0.09583113 -0.055025093 0.042561192 -0.081775576 0.0023410933 -0.0024790808
0.18277302 0.06280552 -0.031377017 -0.059609085 0.06694301 0.13723254 0.05979492 0.2280164
-0.090069905 0.09292146 0.007650219 -0.07232643 0.052227005 -0.002541305 -0.028055787 -0.066249214
0.19004308 0.08438164 0.069865376 -0.059001703 0.043169253 -0.030967286 -0.008170763 0.16026308
0.0025674892 0.31202358 0.15709129 -0.024605395 0.026962714 0.14696305 0.062020548 0.026722923
-0.053211205 -0.04014066 0.27387524 0.29717875 -0.071476854 0.13659255 0.28213862 -0.017362308
0.015626522 -0.025256133 -0.009102592 -0.094505444 0.039654158 0.37037486 -0.08679682 0.15064456
0.09090742 0.24179915 -0.05097522 -0.052244995 0.18914375 -0.120757274 0.15358761 -0.21361889
-0.06400931 0.03197151 0.23547155 0.1884096 0.019376237 0.18489468 0.08495487 0.16208698
-0.0017583629 0.117982805 -0.061286036 0.0018153604

fc3.weight f4 [10, 84]
00000000: 5fad eebc 481b 7c3d 8149 5abe 51d0 493e
00000010: 34a1 a6bc a974 5ebe d319 7a3e d96d cdbc
00000020: 8071 ab3e 8421 813e 99a6 843d e98b 97bc
00000030: 6571 7e3e 2658 933d 31fe 19bc a872 993d
00000040: d7ec 833c 09cb 773d 52ea 833d f009 1a3e
00000050: c4a0 073e 8ead e5bc de1c edbc 4369 36be
00000060: af2d 46bd 51fc 5b3e aee9 483d 8c38 a2bd
00000070: 9925 86bd bff6 9f3d 8730 073e fa13 6e3b
00000080: 2fc7 b1bd 81f5 ee3d e691 1f3d 3faa 47bd
00000090: 922c 483e edfb 16be 88c5 5e3b b1f6 8ebe
000000a0: cd7e 573e 8124 713e 1d43 acbc 2c22 3f3e
000000b0: 2f6c 1fbd 87f7 313e 08af 123e 662e 2738
000000c0: 00c0 d4bd 9a66 4b3e ab1c d23c 3211 80be
000000d0: bf9c 75bd 28b2 c63d c148 293e 8e51 ecbc
000000e0: 70bf 05bd 3010 78bd b008 a63d 92b7 083d
000000f0: adaf b2bd 8d91 84bd 5b9f d8bd 169a aabd
00000100: 522e e8bc edb0 1bbd 2df8 eabc cc53 99bd
00000110: 57f3 50be 08fd a63b c443 0ebe d959 f63c
00000120: 30f7 8abd 7beb efbc db36 b6bd d9f4 0abd
00000130: 0e23 03bd ea92 7fbe 95df 0cbe 70a0 ddbc
00000140: f297 ba3c 3013 f63c 57b4 b03d 5da5 9d3d
00000150: a81b d0bc 01a3 d3bd 6e43 973e 4a8a 19be
00000160: be9d 05be c54b 7e3d f0b9 653e c985 8abc
00000170: 3154 08be 6098 bb3d 0a12 4dbd 671b 383e
00000180: a7f5 26be 7dd8 aabd f636 b6bd 21b2 133e
00000190: c43f 1cbe 2f36 5abd 3e83 d1bc faaa b83d
000001a0: 0eac 1abe 086a be3d 807b e3bc 7e84 843b
000001b0: b791 bebd 3302 8f3d 9a8a f1bc eeb4 983d
000001c0: ad5a 9fbd cfe8 793d 0bb0 bebd 1d0c 1a3e
000001d0: 4619 a63d fb58 f33c fb08 b7bd 374e feba
000001e0: efb4 813d c678 813d 73bf a43e 50ed 79bc
000001f0: e925 4b3d 85f2 bcbe b8e5 38bd 565d 823d
00000200: 066e 47be 895c bb3e 53ed 85bd 49d1 a83e
00000210: 45ad 21be 3517 413e 54d3 b3bd f214 72be
00000220: 15d9 023d 4bdf 95bd 61fc 90be 5298 bc3d
00000230: b31e 253e d196 11bd faaa 5fbd 1db8 adbd
00000240: 36cd 743d 1bee 07be 929a 9bbc a223 f6bd
00000250: 67ab 2dbe 8724 55be 0cc5 c33c 80bc 523d
00000260: 356a 46bc c9ed 163e 6e83 d5bd 1200 e43e
00000270: 6e37 f83c 14d7 adbd 10af e0bd f308 34bc
00000280: 4796 00bd a012 6dbd 34fe 27be 7834 0dbe
00000290: 6973 ce3d 29fc d8bd 83af 9b3d 3823 38bd
000002a0: 90ae 8dbd 1b6c b73d 8b86 be3c 69d2 a63e
000002b0: e13b 0bbe 860b 943c 6f0d 24bd 9f90 233d
000002c0: 1d0e 403e 275c 09bc 3dfb 1fbe 98a7 173e
000002d0: ab4c 013d 7734 9b3d 8c04 893d ac0e bd3c
000002e0: a716 893d f8a0 38bd 509b 8cbd 3c58 ec3c
000002f0: 442b 6bbd b16c 1bbe 1dc6 bc3c b8a8 7c3c
00000300: 0857 d43d 1b11 e1bd 113a 463c aa76 15bd
00000310: 7142 ddbc 6e9b f0bc 4da6 1ebd 0f2a 8cbd
00000320: be8f 6c3d 8a43 ccbd 5e2d 01bc 7531 e43c
00000330: ba3a d5bd 2924 7bbd 17f0 68bd d38d 7a3e
00000340: c2f1 723c a332 993e 53ca e5bd db05 1e3e
00000350: e996 ddbb cd8e 98be b019 1cbd f489 87bc
00000360: f2ef 0f3e f6e2 54bc 7c18 953d ed20 3cbd
00000370: d665 9f3d eee2 e4bc 6e61 803e 8604 f23c
00000380: f270 42be 4247 993d 6dd4 adbd 45cf 3d3d
00000390: 3fac 8d3e 53b7 833e 624c 303e 524b fc3d
000003a0: d846 92bd 6af0 753e b9d0 e4bc 8904 cc3d
000003b0: 6eba b4bd 3011 963c b5f8 07be c819 c5bd
000003c0: ab34 17bc cb0c 953d 8c0b 093e 2d20 1ebe
000003d0: 7c2b c23d 433a 743d a28b 443e 4c8b c93c
000003e0: 200c 6f3d cbe2 ca3d db10 103e a274 eabb
000003f0: 4325 a63d f81d af39 72be 993c 0840 c8bd
-0.029135404 0.061549455 -0.21317102 0.19708373 -0.02034054 -0.2172419 0.24423914 -0.025076794
0.3348503 0.25220883 0.064770885 -0.018499332 0.24847944 0.07194547 -0.009398983 0.07492572
0.016104145 0.060496364 0.064411774 0.15042853 0.13244921 -0.028036859 -0.028944429 -0.17813592
-0.04838341 0.2148297 0.04905098 -0.07920942 -0.0655014 0.07810735 0.13202105 0.0036327825
-0.086805694 0.1166792 0.0389575 -0.048746344 0.19548252 -0.1474454 0.003399225 -0.27922586
0.21044464 0.23549081 -0.021028096 0.1866538 -0.03892153 0.1737958 0.14324582 3.9859115e-05
-0.103881836 0.19863358 0.025648436 -0.2501312 -0.059963938 0.09701949 0.1653166 -0.028847482
-0.032653272 -0.060562313 0.08107126 0.03337819 -0.08724914 -0.06473074 -0.1057727 -0.08330171
-0.0283424 -0.038010526 -0.028682793 -0.07486686 -0.20405327 0.0050960816 -0.13893038 0.03007214
-0.067854285 -0.02928709 -0.088971816 -0.03392491 -0.032015853 -0.24958387 -0.13757165 -0.027054042
0.022777531 0.030038446 0.08628147 0.07697556 -0.025403813 -0.10333825 0.29543632 -0.1499416
-0.13048455 0.06208398 0.22434211 -0.016909497 -0.13313366 0.091599226 -0.05006603 0.17979203
-0.16304646 -0.08342073 -0.08897202 0.1442342 -0.152587 -0.05327433 -0.025575276 0.09016986
-0.15104696 0.092975676 -0.02776885 0.0040441146 -0.09305137 0.06982841 -0.029485036 0.074563846
-0.07780967 0.06101304 -0.09310921 0.15043683 0.08110289 0.029705515 -0.0893726 -0.0019401972
0.063333385 0.06321864 0.32177314 -0.015254334 0.0495967 -0.36903778 -0.045140952 0.06365459
-0.19475564 0.36594036 -0.065394066 0.32972172 -0.15788753 0.18856509 -0.08780542 -0.23640803
0.031945307 -0.073179804 -0.2831755 0.0920874 0.16124992 -0.03554422 -0.054606415 -0.084823824
0.059766017 -0.13274424 -0.018994603 -0.12018515 -0.16959916 -0.20814715 0.02389767 0.0514493
-0.012110283 0.14739145 -0.10425459 0.44531304 0.030299868 -0.084882885 -0.109708905 -0.010988462
-0.031393316 -0.05787909 -0.16405565 -0.13789546 0.100806065 -0.10594971 0.076018356 -0.044955462
-0.06918061 0.08956166 0.023257514 0.32582405 -0.1359706 0.018071901 -0.040051874 0.039932843
0.18755384 -0.008383787 -0.15623184 0.14810026 0.031567257 0.07578366 0.066903204 0.023078285
0.06693774 -0.045075387 -0.06865561 0.028850667 -0.05741431 -0.15178181 0.023043687 0.015421085
0.103681624 -0.10989591 0.012098805 -0.03649012 -0.02700922 -0.02937099 -0.038732816 -0.068439595
0.05775427 -0.099738196 -0.007884352 0.027855614 -0.10411592 -0.061313782 -0.056869593 0.24468164
0.014828147 0.29921445 -0.11220231 0.15431921 -0.0067623747 -0.29796448 -0.038110435 -0.016545273
0.14056376 -0.012993565 0.07280061 -0.045929838 0.077830955 -0.02794024 0.25074333 0.029543173
-0.18988398 0.074842945 -0.084877826 0.046340246 0.27670476 0.25725803 0.17216638 0.12319054
-0.071424186 0.24017492 -0.027931558 0.099618025 -0.08824621 0.018318743 -0.13278468 -0.09624058
-0.009228866 0.07277831 0.13383311 -0.15441962 0.0948095 0.059625875 0.1919389 0.024602555
0.058361173 0.099065386 0.1406893 -0.007155017 0.08112576 0.0003340093 0.01876757 -0.09777838

fc3.bias f4 [10]
00000000: ffdd 39be e1ab 05bf e45e b23d 2709 a03e
00000010: bf17 bd3e ea6f dcbd 75db e23d 4720 aebe
00000020: 053d c43e 430c 9fbe
-0.18151091 -0.5221539 0.08709505 0.31256983 0.3693218 -0.107635334 0.11077014 -0.34009
0.38327804 -0.31064042
