CIFAR-pytorch/cifar_net.pth (torch, 251391 bytes, 10 tensors)

conv1.weight f4 [6, 3, 5, 5]
0	0x3d66d271	0.056353036
1	0xbd036d61	-0.032086734
2	0x3d484ddc	0.048902377
3	0xbdb84f42	-0.08999492
4	0x3ca1ef62	0.019767467
5	0xbc83f40e	-0.016107585
6	0xbe06d232	-0.1316612
7	0xbc354025	-0.0110626565
8	0xbd871c80	-0.06597233
9	0xbd950b50	-0.07277548
10	0x3d08fa1c	0.033441648
11	0xbe0bb6bd	-0.13643928
12	0xbdeef392	-0.11667551
13	0xbd213283	-0.039354812
14	0xbb4effe7	-0.0031585635
15	0x3d2ab48d	0.041676093
16	0x3da46a20	0.08028054
17	0xbd6b6b4d	-0.057475377
18	0x3c337acd	0.010954571
19	0xbd8ed9b8	-0.0697512
20	0x3c89d906	0.016827118
21	0xbda5fc94	-0.08104816
22	0x3d811abc	0.06303927
23	0xbd8f6a9e	-0.070027575
24	0x3d7f98f5	0.06240173
25	0xbd73be90	-0.059507906
26	0x3d8720e3	0.065980695
27	0x3c5f607b	0.013633843
28	0x3ddba32a	0.107244805
29	0xbd49b013	-0.049240183
30	0x3cd1068c	0.025515817
31	0x3d0c8ce0	0.034314036
32	0x3ce1b722	0.027553145
33	0x3dae5e12	0.08514036
34	0x3cf580d0	0.02996865
35	0x3d668123	0.056275498
36	0x3d716835	0.05893727
37	0xbde59a51	-0.11211074
38	0x3dee0cd8	0.116235435
39	0x3dc1e3df	0.09467291
40	0x3d69a286	0.05703976
41	0x3dc47438	0.095924795
42	0x3d36d67e	0.04463815
43	0xbc40340b	-0.011731158
44	0xbda57400	-0.08078766
45	0x3ca7d696	0.020488065
46	0x3d4514d0	0.04811555
47	0x3d30e468	0.043186575
48	0xbdc64001	-0.096801765
49	0x3d87a423	0.066231035
50	0x3c9ea7d9	0.019367145
51	0x3de496f0	0.111616015
52	0x3e1d6d92	0.15373829
53	0x3de1739f	0.11008381
54	0x3e0be998	0.13663328
55	0x3dfe5b74	0.12419787
56	0x3e351938	0.17685401
57	0x3cd7673c	0.026294343
58	0x3e485fb5	0.1956776
59	0x3e020a92	0.12699345
60	0x3d22df7a	0.039763905
61	0x3d846ab5	0.06465665
62	0x3e3ccaa5	0.18436678
63	0x3db54a63	0.08852079
64	0x3dbb5dd1	0.091487534
65	0x3e03a476	0.12855706
66	0x3cd2ec82	0.025747541
67	0x3dbaa413	0.09113326
68	0x3e3d62b1	0.18494679
69	0x3dd03d5b	0.101679526
70	0x3e1535a9	0.14571251
71	0x3bafb0fe	0.0053616753
72	0x3dd51851	0.104050286
73	0x3cb6e6ff	0.022326944
74	0x3e01a119	0.1265911
75	0xbc864c03	-0.016393667
76	0xbd8f4125	-0.06994847
77	0xbd4571c7	-0.04820421
78	0xbd90cd15	-0.07070366
79	0x3de95878	0.11393827
80	0xbd32140b	-0.043476146
81	0x3ca723c6	0.0204028
82	0xbc8394f3	-0.016062235
83	0xbd477d3d	-0.04870342
84	0xbcc7dcf9	-0.02439736
85	0xbb7dbe53	-0.0038718178
86	0x3cb194e4	0.021677442
87	0x3d4b3452	0.049610443
88	0x3d94a30a	0.0725766
89	0xbc9fc39e	-0.019502457
90	0x3cba83ee	0.022767987
91	0xbd081188	-0.033219844
92	0xbdbfd465	-0.09366683
93	0xbde9e33c	-0.11420295
94	0xbc018fef	-0.007907852
95	0xbd357d19	-0.044308756
96	0xbe11cd2f	-0.14238428
97	0x3db70545	0.08936552
98	0x3d1c2ff7	0.03813168
99	0x3d3e27ec	0.04642479
100	0x3da8ccd8	0.08242196
101	0x3dbea1f6	0.09308235
102	0x3d632255	0.055452663
103	0xbc5df87e	-0.013548015
104	0x3dee3145	0.11630491
105	0xbbef31d6	-0.007299642
106	0xbd84d674	-0.06486216
107	0xbd952182	-0.07281782
108	0x3dc6bf0f	0.0970441
109	0x3e1accdb	0.15117209
110	0xbd9aca27	-0.07558089
111	0xbd9b59fd	-0.07585523
112	0x3ca3e0ff	0.020004747
113	0x3e28f5bd	0.16499992
114	0x3e287e05	0.16454323
115	0x3d7f2ddb	0.06229959
116	0xbdb594d9	-0.08866281
117	0x3dccad41	0.09993983
118	0x3e05c702	0.13064197
119	0x3e17dac8	0.14829552
120	0xbbe7c758	-0.007073324
121	0xbd181238	-0.03712675
122	0x3dfaeb5a	0.12251921
123	0x3e301bb6	0.17198071
124	0xbc4c6591	-0.012475387
125	0xbe11c309	-0.14234556
126	0x3caaa800	0.020832062
127	0xbe3138b5	-0.17306788
128	0xbd207cfd	-0.039181698
129	0x3d578b18	0.052622885
130	0x3b336914	0.0027375864
131	0xbdf2e3cf	-0.11859857
132	0xbe07b9bc	-0.13254446
133	0x3d55b226	0.05217185
134	0x3cc85ce3	0.024458354
135	0xbdd8c147	-0.1058374
136	0xbe0797a4	-0.1324144
137	0xbd853673	-0.06504526
138	0x3d9bab95	0.07601086
139	0xbdd8426d	-0.10559545
140	0xbd81fd83	-0.06347182
141	0x3c096777	0.008386484
142	0xbe107b76	-0.14109597
143	0xbd65ff89	-0.0561519
144	0x3cae7b8b	0.021299144
145	0xbd33933b	-0.04384158
146	0xbe03a291	-0.12854983
147	0xbdc36363	-0.09540441
148	0xbdf18697	-0.11793249
149	0x3dabdc8b	0.083916746
150	0x3d7b4327	0.06134334
151	0x3d61be91	0.05511338
152	0x3daba729	0.08381493
153	0x3dad5e95	0.08465306
154	0xbd992b68	-0.07478982
155	0x3de35bf6	0.111015245
156	0x3de71ad1	0.11284412
157	0x3dcffe41	0.10155917
158	0x3dbe2e76	0.092862055
159	0x3e03bdb4	0.12865335
160	0x3dd77a83	0.10521414
161	0x3e0dda6d	0.13852854
162	0x3d913696	0.070904896
163	0x3e09ac3a	0.13444605
164	0x3dff6021	0.12469507
165	0x3ce55707	0.0279956
166	0x3d856d07	0.06514936
167	0x3de98aa5	0.114033975
168	0x3d4d2321	0.05008233
169	0xbd0dd711	-0.03462893
170	0xbd9d3a31	-0.07677115
171	0xbcb0d882	-0.021587614
172	0x3c2b1c0e	0.0104437005
173	0xbd91b56d	-0.07114682
174	0x3e05e95d	0.13077302
175	0x3e0efc7a	0.139635
176	0x3dda3742	0.10655071
177	0xbca79301	-0.02045584
178	0xbd100d98	-0.035169214
179	0x3bb90fc2	0.0056476304
180	0x3e11c15b	0.14233916
181	0x3b5a6ef8	0.0033330303
182	0x3e0de848	0.1385814
183	0xbc5bedf3	-0.013423431
184	0x3d683130	0.056687534
185	0xbd540b6d	-0.05176871
186	0x3cc97782	0.024593119
187	0x3d2e7ee3	0.042601477
188	0xbcd74586	-0.026278269
189	0x3e0acee1	0.1355548
190	0xbd53c07b	-0.051697236
191	0xbd5c00a2	-0.05371154
192	0x3de9a3a5	0.11408166
193	0xbd8b43f1	-0.06800068
194	0x3c22029b	0.0098883165
195	0xbd076d90	-0.03306347
196	0xbc861274	-0.016366221
197	0x3de44232	0.11145438
198	0xbaf5b226	-0.0018745109
199	0x3db4212b	0.08795389
200	0x3dc7e506	0.0976048
201	0x3e19b3e4	0.15010029
202	0x3d2b4341	0.041812185
203	0xbd839503	-0.06424906
204	0x3db593ad	0.088660575
205	0x3d839158	0.064242065
206	0xbd65c238	-0.056093425
207	0xbcf2212e	-0.029556837
208	0x3d11c83f	0.03559136
209	0xbd66848d	-0.056278754
210	0x3e0fbb40	0.14036274
211	0xbd40b0ec	-0.047043726
212	0xbd163e8a	-0.036680736
213	0xb9d2d618	-0.00040213834
214	0x3d03cc0a	0.03217701
215	0xbd953143	-0.072847866
216	0xbd618647	-0.055059697
217	0x3cec399b	0.028836062
218	0xbcfd8837	-0.030948741
219	0x3e1c60e6	0.15271339
220	0x3dfa149a	0.12210961
221	0x3e171057	0.14752327
222	0x3cd33996	0.025784295
223	0x3e01785b	0.12643568
224	0x3d76a03d	0.06021141
225	0xbd80c796	-0.06288068
226	0x3da77a5d	0.08177636
227	0x3cf775b2	0.030207489
228	0x3de46769	0.111525364
229	0x3df5a3fc	0.11994168
230	0x3d17730e	0.03697496
231	0xbdbc2965	-0.09187583
232	0xbc340014	-0.010986347
233	0x3d7aaf7d	0.061202515
234	0x3d315ae6	0.043299578
235	0xbde584a1	-0.112069376
236	0xbdbd5976	-0.09245579
237	0xbe23bf32	-0.15990904
238	0xbdaf1537	-0.08548968
239	0xbe129990	-0.14316392
240	0x3c9d790d	0.01922276
241	0xbe125906	-0.14291772
242	0xbdfb24b2	-0.122628585
243	0xbe1c61c9	-0.15271677
244	0xbdf59bdf	-0.11992621
245	0xbc097ed5	-0.0083920555
246	0xbe1cec2b	-0.15324466
247	0xbe148c72	-0.145067
248	0xbd32f8fb	-0.043694478
249	0xbd14ce3a	-0.036329485
250	0x3cd48a90	0.025944978
251	0x3ceb6be7	0.028737975
252	0x3d5a582d	0.053306747
253	0x3d9b9c9d	0.07598231
254	0x3c352578	0.0110562965
255	0x3da5ec66	0.0810173

conv1.bias f4 [6]
0	0x3e1a725b	0.15082686
1	0x3e44aa4d	0.1920559
2	0x3d58cade	0.052927844
3	0x3d7c95b8	0.06166622
4	0x3e1bb055	0.15203984
5	0x3dd384c2	0.10328056

conv2.weight f4 [16, 6, 5, 5]
0	0x3cae15da	0.021250654
1	0x3d9d877b	0.076918565
2	0x3d526914	0.05136974
3	0xbb834916	-0.0040065153
4	0xbd5e3e5e	-0.054258697
5	0xbb2f4e4c	-0.002674955
6	0x3ce06c7d	0.027395481
7	0x3dab10e3	0.0835283
8	0xbd697396	-0.056994997
9	0x3ca64726	0.020297598
10	0xbd7ea039	-0.06216452
11	0xbbe363c3	-0.0069393828
12	0x3c8c9964	0.017162986
13	0xbd95b831	-0.07310522
14	0xbdae2092	-0.08502306
15	0xbd07005a	-0.03295932
16	0x3cd0a6cc	0.02547016
17	0xbd3ee78e	-0.046607547
18	0xbd525e2d	-0.051359344
19	0x3c8d5b31	0.017255398
20	0x3daaac78	0.08333677
21	0x3d4fd5eb	0.050741117
22	0xbcb50924	-0.022099085
23	0xbd4ece0b	-0.050489467
24	0xbd16e950	-0.036843598
25	0xbbd66df3	-0.0065438687
26	0x3d1ae4b6	0.037815772
27	0x3d9f675e	0.077833876
28	0xbcc79c51	-0.02436653
29	0xbd1685ca	-0.036748685
30	0xbd91e1e1	-0.07123161
31	0x3d425944	0.04744841
32	0xbd7afef4	-0.0612783
33	0xbc9c8c2d	-0.01910981
34	0x3c39095f	0.011293738
35	0xbcb0670b	-0.02153351
36	0x3cce6e8e	0.025199201
37	0x3bf9dc35	0.0076251277
38	0xbbba2cfb	-0.0056816316
39	0xbcb6c468	-0.02231045
40	0x3c4de92d	0.0125678005
41	0xbca90401	-0.020631792
42	0x3b3c699e	0.0028749476
43	0x3d7dc468	0.061954886
44	0xbb761107	-0.003754677
45	0xbd84aa48	-0.06477791
46	0xbbacf976	-0.0052787615
47	0xbd228d86	-0.03968575
48	0x3d611b34	0.054957584
49	0x3cce1428	0.025156096
50	0x3d64712b	0.055771988
51	0x3dc53197	0.09628599
52	0x3c75cebb	0.015002902
53	0x3c2e7c28	0.010649718
54	0x3d9686e8	0.0734995
55	0x3d5a3f3e	0.05328297
56	0x3db3f025	0.08786038
57	0xbd215a8a	-0.039392985
58	0xbcf3b968	-0.029751495
59	0xbd853ce3	-0.06505754
60	0xbd3f624b	-0.0467246
61	0x3b9ed082	0.0048466334
62	0xbd475e4d	-0.048673917
63	0xbd2a4f7a	-0.0415797
64	0xbc967a2e	-0.018368807
65	0xbc03af76	-0.008037439
66	0x3a9d1141	0.0011983291
67	0xbd01c219	-0.031679247
68	0x3ba766ff	0.0051087136
69	0x3d491aee	0.049097948
70	0xbd0c69c6	-0.03428056
71	0xbc64f3fe	-0.013974188
72	0xbc24e080	-0.010063291
73	0x3ad20d04	0.0016025607
74	0x3d789507	0.060689
75	0x3d932911	0.07185567
76	0xbce57b4b	-0.028012892
77	0x3d33a16a	0.04385511
78	0x3db1a406	0.08673863
79	0x3ccc5557	0.024943037
80	0xbd20bea8	-0.039244324
81	0x3dbb6c35	0.09151498
82	0x3c821a4d	0.015881682
83	0xbd1db61f	-0.038503762
84	0x3d519d92	0.05117566
85	0xbd5c4004	-0.053771988
86	0x3d9e589f	0.07731747
87	0x3d54a496	0.051914774
88	0x3c0f3de8	0.008742787
89	0x3d80215f	0.06256365
90	0x3d0ea271	0.034822885
91	0x3ce3059b	0.027712634
92	0x3d5ff4cf	0.054676827
93	0xbb962d10	-0.0045830086
94	0x3d0b6a10	0.034036696
95	0x3da2770d	0.079328634
96	0x3d99b54c	0.07505283
97	0xbd726d28	-0.05918613
98	0xbd92a08e	-0.071595296
99	0xbd9fe661	-0.07807613
100	0x3dc99c0f	0.09844219
101	0x3dbe93a5	0.09305505
102	0x3ca57510	0.020197421
103	0xbd271ae2	-0.04079712
104	0x3d660059	0.056152675
105	0x3dc3fd5d	0.095698096
106	0x3d9debdd	0.07711003
107	0x3ddd80a9	0.108155556
108	0xbbffa253	-0.007801333
109	0xbcd06301	-0.025437834
110	0x3d3d5b4c	0.046229646
111	0x3df69a85	0.12041191
112	0x3cc0df69	0.02354403
113	0x3d68b2bc	0.05681108
114	0x3cad5272	0.021157477
115	0x3d6e0d9c	0.058118448
116	0x3d001281	0.031267647
117	0xbbc023ed	-0.0058636577
118	0x3e154daa	0.14580408
119	0x3e111cc1	0.14171125
120	0xbcaf6a74	-0.021413065
121	0x3da95787	0.08268648
122	0x3d8e229e	0.069401965
123	0x3d81bbc5	0.06334642
124	0x3c4ad413	0.012379664
125	0x3d94ffd8	0.07275361
126	0x3ccaba8e	0.02474716
127	0x3d42f213	0.04759414
128	0x3c6e54f3	0.014546621
129	0xbcd9324d	-0.026513243
130	0x3cf18663	0.029483026
131	0xbd45282b	-0.04813401
132	0x3cd096ab	0.02546247
133	0xbd91b19d	-0.07113955
134	0x3be0b976	0.006858046
135	0xbd49832e	-0.04919737
136	0xbd3bbec7	-0.045836236
137	0x3d704127	0.058655884
138	0x3d8bf165	0.06833152
139	0xbd01ca77	-0.031687226
140	0x3ccce340	0.025010705
141	0x3b498627	0.0030750127
142	0xbd9a9b6a	-0.07549174
143	0x3bd38ede	0.00645624
144	0xbbc28298	-0.005935978
145	0xbd0c05e8	-0.03418532
146	0xbd9dbbd1	-0.07701839
147	0x3d193448	0.037403375
148	0xbd5de980	-0.05417776
149	0xbd221bde	-0.039577357
150	0xbd5f8369	-0.054568682
151	0x3d387663	0.045034777
152	0x3db69b11	0.08916295
153	0x3d5d9a5f	0.054102298
154	0x3aded9bc	0.0017002146
155	0xbd70af2b	-0.058760803
156	0xbd10242b	-0.035190742
157	0x3dbbba94	0.09166446
158	0x3da7a546	0.0818582
159	0x3cd8c9bb	0.02646338
160	0xbd53da92	-0.051722117
161	0x3c0ab873	0.008466828
162	0x3ca5fdef	0.020262687
163	0xbcbbf73f	-0.022945045
164	0x3cbdc593	0.0231655
165	0x3c4140a9	0.011795201
166	0xbd0ee444	-0.03488566
167	0x3ccac833	0.024753666
168	0xbca00598	-0.019533917
169	0xbce8bf99	-0.028411673
170	0x3d9a7f2c	0.07543787
171	0xbc80b401	-0.015710833
172	0x3bb9c486	0.0056691794
173	0x3c5c21fb	0.013435836
174	0x3d47d184	0.048783794
175	0x3d0c4b15	0.03425129
176	0xbd6ec21a	-0.05829058
177	0xbcd9c3de	-0.026582655
178	0xbd2e0d33	-0.042493057
179	0x3c06727c	0.008206006
180	0xbd99a9b1	-0.07503069
181	0xbca2e69a	-0.01988535
182	0xbc5d936c	-0.013523918
183	0xbb04ed42	-0.0020283018
184	0xbd177982	-0.036981113
185	0xbcd7b8ae	-0.02633318
186	0xbd59328a	-0.053026713
187	0x3db2c5a1	0.08729101
188	0x3d7d839b	0.061893087
189	0xbd570e3a	-0.052503802
190	0x3d675c58	0.05648455
191	0x3d9c09eb	0.07619079
192	0xbd863756	-0.06553523
193	0xbcd307a7	-0.025760485
194	0x3c8e12e7	0.017342998
195	0xbd25f556	-0.040517174
196	0x3cbbb26b	0.022912225
197	0x3d9b26ba	0.07575746
198	0x3d16c123	0.036805283
199	0xbb3bd7d2	-0.0028662574
200	0x3d6fba61	0.058527354
201	0x3d3742fc	0.044741616
202	0x3d9ee163	0.07757833
203	0x3d6837f2	0.05669398
204	0xbd810935	-0.06300584
205	0x39bd8a22	0.00036151806
206	0x3d65d65d	0.056112636
207	0xbd872278	-0.06598371
208	0x3c803559	0.015650438
209	0x3d995e38	0.07488674
210	0x3d2456d1	0.040121857
211	0xbd849ca0	-0.06475186
212	0xbd3f60df	-0.046723243
213	0x3da25c46	0.07927756
214	0xbbadca72	-0.0053036744
215	0x3d94f14e	0.07272588
216	0xbcb79c49	-0.02241339
217	0x3d14b713	0.036307406
218	0x3d7bbb6a	0.06145803
219	0xbd8cfb04	-0.06883815
220	0x3cbdb8b0	0.023159355
221	0xbc8e4eea	-0.017371614
222	0xbce886aa	-0.028384525
223	0x3d84245f	0.0645225
224	0x3c55e185	0.013054256
225	0xbd99c3af	-0.07508027
226	0xbccc24ef	-0.024919955
227	0xbcdcdaef	-0.026959864
228	0x3d3b373b	0.04570697
229	0xbd36257e	-0.04446935
230	0x3d03f3d7	0.032214966
231	0x3d7328e8	0.059365183
232	0xbd9e0972	-0.07716645
233	0x3d7d6f00	0.061873436
234	0xbd684861	-0.05670965
235	0x3bb2e494	0.0054593775
236	0x3d2edf8b	0.042693656
237	0xbcd65568	-0.026163772
238	0x3d101acb	0.0351818
239	0xbd3bb850	-0.04583007
240	0xbd29c94b	-0.041451734
241	0xbd583d4d	-0.052792836
242	0xbcc9e278	-0.024644122
243	0xbd516deb	-0.051130217
244	0x3d88df2c	0.06683192
245	0xbda559d4	-0.08073774
246	0xbd7d8fb5	-0.061904628
247	0x3c975140	0.01847136
248	0x3d8952f2	0.06705274
249	0x3cea2dc1	0.02858627
250	0xbd273f42	-0.04083181
251	0x3d0b1758	0.03395781
252	0xbd88bc67	-0.0667656
253	0x3d298a1e	0.041391484
254	0x3d5944b3	0.053044032
255	0x3d875df3	0.06609716

conv2.bias f4 [16]
0	0xbbbf2ccc	-0.0058341976
1	0x3c94cfa4	0.018165417
2	0xbd92d335	-0.07169191
3	0x3dc32b43	0.09529736
4	0xbcd2af18	-0.025718257
5	0x3d2a931d	0.041644204
6	0xbd6030e0	-0.05473411
7	0x3dae1b94	0.08501354
8	0x3da89a31	0.08232535
9	0x3d91a2bd	0.07111118
10	0x3d57fff9	0.05273435
11	0x3dc3996c	0.09550747
12	0x3db93c65	0.090447225
13	0xbd94d452	-0.072670594
14	0xbccfe7de	-0.025379118
15	0xbd848c7e	-0.06472109

fc1.weight f4 [120, 400]
0	0xbab9d5ef	-0.0014178137
1	0x3d393dad	0.045224834
2	0xbd06cecc	-0.03291206
3	0xbce39d28	-0.027784899
4	0x3d0ba38a	0.03409151
5	0x3ca7d3e0	0.020486772
6	0x3d3e8cf7	0.046521153
7	0xbcca62f0	-0.02470538
8	0xbc8ef8bf	-0.017452596
9	0xbcdbef17	-0.026847405
10	0x3cc0b59d	0.0235241
11	0x3d2f9bbb	0.042873126
12	0x3d16fdee	0.03686326
13	0x3d4896ea	0.048972048
14	0xbd2f3872	-0.04277844
15	0xbd06ac06	-0.032878898
16	0x3d1d6774	0.03842874
17	0x3cbba8b2	0.022907589
18	0xbd1a1ec2	-0.03762699
19	0xbd263b61	-0.040583972
20	0x3aa09a8e	0.0012253092
21	0x3ccf1f5b	0.025283506
22	0xbd2edb09	-0.042689357
23	0xbbc52ab6	-0.0060170544
24	0xbd05a3b1	-0.03262681
25	0x3c853750	0.016261727
26	0xbd02230a	-0.031771697
27	0x3b9bb732	0.004752063
28	0x3a1a20d2	0.00058795244
29	0xbc825802	-0.015911106
30	0xbd22d780	-0.039756298
31	0xbd045f3f	-0.032317396
32	0xbd2c024a	-0.04199437
33	0xbd3fb04b	-0.046798985
34	0xbcf095c5	-0.02936829
35	0xbd20fe99	-0.039305303
36	0xbbbff65b	-0.0058582253
37	0xbd3a1d46	-0.045438074
38	0x3d3a844a	0.045536317
39	0xbc403059	-0.011730277
40	0xbb88e43d	-0.0041775987
41	0xbd02d83a	-0.03194449
42	0x3d18d1ea	0.037309565
43	0xbcb33c7e	-0.02187943
44	0x3c067bb5	0.008208205
45	0x3d3928a1	0.045204762
46	0xbd3879e7	-0.04503813
47	0x3c75c889	0.015001425
48	0xbc66be21	-0.014083416
49	0xbc7dfb3f	-0.015501796
50	0x3d344999	0.0440155
51	0xbc74fb9b	-0.014952566
52	0x3ca9f75e	0.020747837
53	0x3c24fb07	0.010069615
54	0x3c77c339	0.015122228
55	0x3c3396f3	0.010961282
56	0xbcbe0b3c	-0.023198716
57	0x3c5f330e	0.013623012
58	0x3b758e66	0.003746891
59	0xbc445d97	-0.011985204
60	0x3c389567	0.011266089
61	0xbd064ce4	-0.032788172
62	0x3d220515	0.039555628
63	0xbd008daf	-0.03138512
64	0xbcb184d0	-0.021669775
65	0x3beb3814	0.007178316
66	0x3c3d092a	0.011537829
67	0x3d33d91c	0.043908224
68	0xbcf128dd	-0.02943843
69	0x3b586a7d	0.0033022456
70	0xbce0a981	-0.027424576
71	0xbcd5c6d8	-0.026095793
72	0xbcbf9972	-0.023388598
73	0x3d3cba3b	0.04607604
74	0x3b0cb431	0.0021469707
75	0xbbfafbf1	-0.0076594283
76	0xbaa281ff	-0.0012398361
77	0xbccc3299	-0.02492647
78	0xbc69d884	-0.014272813
79	0xbd14b938	-0.03630945
80	0xbc5f50e4	-0.013630126
81	0xbbb53af5	-0.00553071
82	0xbc5908a0	-0.013246685
83	0x3ccfd26f	0.025368897
84	0xbcff894c	-0.031193398
85	0x3bd2fb19	0.0064386246
86	0x3cd6c3a3	0.026216334
87	0xbc81d808	-0.015850082
88	0xbba9ad6c	-0.005178144
89	0x3cc77aa4	0.024350472
90	0xbcfccb72	-0.030858729
91	0x3d320cef	0.043469366
92	0x3d5a79e3	0.053338896
93	0x3c9f250e	0.019426849
94	0xbb9dc909	-0.004815225
95	0xbd496c1e	-0.049175374
96	0x3d38c567	0.045110133
97	0x3c4eddcf	0.0126261255
98	0x3cb40db1	0.021979185
99	0xbbfd5943	-0.007731588
100	0x3c2b9a3c	0.010473784
101	0x3c79c9d7	0.015245876
102	0xba03d247	-0.0005028587
103	0xbb81fe87	-0.0039671096
104	0x3c51c587	0.012803442
105	0xbcef5111	-0.02921346
106	0xbd3df4fd	-0.046376217
107	0x3d2e3fdf	0.04254138
108	0xbce85951	-0.028362902
109	0xbd270a96	-0.04078158
110	0xbcc154ff	-0.0236001
111	0xbd033cf3	-0.032040548
112	0x3cff4803	0.031162268
113	0x3d3b4074	0.045715764
114	0x3d45ba5b	0.048273426
115	0xbd48792b	-0.04894368
116	0xbd40bce7	-0.04705515
117	0x3d167833	0.036735725
118	0xbbd8753c	-0.0066057723
119	0x3b8f3e7b	0.004371462
120	0x3c94c5c6	0.018160712
121	0xbd3cd5a3	-0.046102177
122	0xbd50fffb	-0.051025372
123	0xbcfb87da	-0.030704428
124	0x3ca3dab0	0.02000174
125	0xbc616419	-0.013756775
126	0xbd295193	-0.04133756
127	0x3d588cca	0.052868642
128	0x3cc90c2b	0.024541935
129	0x3d2ca3b1	0.042148296
130	0x3ccc6fd3	0.024955666
131	0xbd1f4040	-0.038879633
132	0xbc662876	-0.014047733
133	0xbd02a064	-0.03189124
134	0x3d6260a3	0.05526794
135	0xbcb3b255	-0.021935621
136	0x3bf9ecdd	0.0076271133
137	0xbcf9aa2c	-0.030476652
138	0x3c0419b5	0.00806277
139	0xbca01ab4	-0.019543983
140	0x3d3bfd0d	0.045895625
141	0x3cdd3d1b	0.027006676
142	0xbc2c64b3	-0.010522055
143	0xbc91cf8d	-0.017799163
144	0x3d5a0467	0.053226855
145	0x3cf467b4	0.029834606
146	0xbd00d176	-0.031449758
147	0xbbdeae3e	-0.0067956736
148	0x3c9c4455	0.019075552
149	0x3d1e82b1	0.038698856
150	0x3d4739eb	0.04863922
151	0x3d09f134	0.033677295
152	0x3d3b3d86	0.04571297
153	0x3c4c5458	0.012471281
154	0xbd3d7bf2	-0.04626078
155	0xbd394b39	-0.045237754
156	0xbd3fda74	-0.046839193
157	0xbc8c6720	-0.017139018
158	0x3c1a9e53	0.0094371615
159	0x3cfc2a3d	0.03078186
160	0x3d0d12b9	0.034441683
161	0xbc55e3ab	-0.013054769
162	0x3d0ecf7e	0.03486585
163	0x3cc537f1	0.024074527
164	0x3d2c7dcf	0.042112168
165	0x3cf81613	0.030283963
166	0x3d037d7d	0.032102097
167	0xbbec3848	-0.0072088577
168	0x3d480b6e	0.048839025
169	0x3c253b56	0.010084948
170	0x3d33c77f	0.043891426
171	0x3bad6447	0.005291495
172	0xbd1b1ff8	-0.037872285
173	0xbd39c0f2	-0.045350023
174	0xbd312855	-0.043251354
175	0x3d22d234	0.039751247
176	0x3c9ac8aa	0.018894512
177	0x3bb8c10a	0.0056382464
178	0xbcab123a	-0.020882715
179	0xbcc1fd50	-0.02368036
180	0xbd4504f2	-0.04810042
181	0xbc94228d	-0.018082881
182	0xbc3133f5	-0.01081561
183	0x3c597fa8	0.0132750645
184	0xbd0bd514	-0.034138754
185	0xbd2cad36	-0.042157374
186	0x3d245e8b	0.040129226
187	0x3c622ad6	0.013804158
188	0xbc388cce	-0.011264039
189	0x3c329d3d	0.010901746
190	0xbd34a876	-0.04410597
191	0x3b7aab1f	0.0038248969
192	0xbd061222	-0.032732137
193	0x3cb9b2bb	0.022668233
194	0xbce8d95c	-0.028423958
195	0x3b9e47d0	0.004830338
196	0x3c54b0c6	0.012981599
197	0xbc20b1cd	-0.009808016
198	0x3c86cda5	0.01645548
199	0xbd278b37	-0.04090425
200	0xbcaddf62	-0.021224681
201	0x3c62ecae	0.013850374
202	0x3af184af	0.0018426384
203	0xbb125c9f	-0.0022333039
204	0x3cbc0577	0.022951825
205	0x3c35ce02	0.011096479
206	0xbd325339	-0.0435364
207	0x3b4264bd	0.0029662095
208	0x3d68fa0b	0.056879085
209	0x3d1b43c7	0.037906434
210	0xbc7a93af	-0.015294
211	0xbd23baf3	-0.03997321
212	0x3d5e32b3	0.05424757
213	0x3d5b0baa	0.05347792
214	0x3c83fc3c	0.016111486
215	0xbce24c7f	-0.027624367
216	0xbd370729	-0.044684563
217	0xbc58c4c0	-0.013230503
218	0xbcfb9f74	-0.030715682
219	0x3cc871fc	0.024468414
220	0xbd3a1dfd	-0.045438755
221	0x3bc7f9f3	0.0061027943
222	0x3d439b18	0.04775533
223	0x3c5eeff8	0.013607018
224	0xbc865cf6	-0.01640175
225	0xbd03b31e	-0.03215324
226	0x3cddf90f	0.0270963
227	0xbcef51e6	-0.029213857
228	0x3ca89f30	0.020583719
229	0xbd14c843	-0.036323797
230	0xbcdfd954	-0.02732531
231	0xbd2b2886	-0.041786693
232	0xbc8ae88a	-0.016956586
233	0xbc58243b	-0.013192232
234	0xbd0f1e9c	-0.0349413
235	0xbcb3cef0	-0.021949261
236	0x3d1e85a4	0.03870167
237	0x3c86ac9c	0.016439728
238	0x3cc185ab	0.023623308
239	0x3d39258f	0.045201834
240	0xbc2f55dd	-0.010701624
241	0x3be04a75	0.0068448135
242	0xbb9d353b	-0.0047976053
243	0x3d00291b	0.0312892
244	0x3d046e9a	0.03233204
245	0x3c742d70	0.014903411
246	0xbc4a0d34	-0.012332249
247	0x3d139e14	0.036039427
248	0xbb2804b5	-0.0025637571
249	0x3d050552	0.032475777
250	0x3c8d2f9d	0.017234618
251	0xbccb943e	-0.02485096
252	0x3c2af57b	0.010434504
253	0xba55eed6	-0.00081608945
254	0xbc64fd55	-0.013976415
255	0xbc266a25	-0.010157143

fc1.bias f4 [120]
0	0xbce00537	-0.027346237
1	0x3d188f32	0.037245937
2	0x3d3914ba	0.045185782
3	0x3bec5296	0.0072119934
4	0x3bd03e2b	0.0063550672
5	0x3d69b795	0.057059843
6	0xbd3690d1	-0.0445717
7	0x3d35dbec	0.044399187
8	0x3aaa75c7	0.0013005071
9	0xbc8bee8d	-0.017081523
10	0xbd23cc53	-0.03998978
11	0x3cf14b8e	0.029454973
12	0x3ca96ca8	0.020681694
13	0xbcb555b4	-0.022135593
14	0xbc7f5d4c	-0.015586209
15	0xbcfea70e	-0.031085517
16	0xbd0dc44a	-0.034611024
17	0xbcfea9b3	-0.031086778
18	0x3cdac491	0.026705058
19	0x3d4f7cb3	0.05065603
20	0x3d67179c	0.056419
21	0x3bc6a6ed	0.0060623796
22	0xbc17504a	-0.009235451
23	0xbd2c032c	-0.041995212
24	0x3b288d76	0.0025719083
25	0xbd36eac3	-0.04465748
26	0xbc86d6c4	-0.01645983
27	0x3d4ceb83	0.05002929
28	0xbcb7bbfb	-0.022428503
29	0xbd60b315	-0.054858286
30	0x3cc2b96d	0.023770059
31	0xbc1a7a70	-0.009428605
32	0x3c59863f	0.013276636
33	0x3d01676a	0.031592764
34	0x3b7b9796	0.0038389913
35	0xbc89a195	-0.016800681
36	0xbd015b4f	-0.03158122
37	0xbd0ecbef	-0.034862455
38	0x3d215e86	0.039396785
39	0x3c8deccb	0.017324826
40	0xbcd65a9f	-0.026166258
41	0x3c5df457	0.013547025
42	0x3d0f0d9c	0.03492509
43	0xbd1833e8	-0.037158877
44	0xbc0fc4df	-0.008774965
45	0x3c9971cb	0.018731019
46	0xbd142045	-0.036163587
47	0xbb82d4ba	-0.003992644
48	0xbc91b22a	-0.01778515
49	0x3cd47954	0.02593676
50	0xbcbae14d	-0.02281251
51	0x3d1defd9	0.038558815
52	0xbd364374	-0.044497922
53	0xbcf27dff	-0.029601095
54	0x3bac4a1c	0.005257858
55	0xbce052b7	-0.027383192
56	0x3d020efa	0.031752564
57	0x3d4bb104	0.049729362
58	0x3be72653	0.007054129
59	0x3c672a1e	0.014109163
60	0xbcae09c5	-0.021244893
61	0x3d23764b	0.039907735
62	0x3c846720	0.016162455
63	0x3cff8cea	0.031195123
64	0x3ce2fa9c	0.02770739
65	0x3c31a9c3	0.010843697
66	0x3bb7f312	0.005613693
67	0x3d2e4ccb	0.042553704
68	0xbd004d8b	-0.03132395
69	0x3c403934	0.011732388
70	0xbd3e33b0	-0.04643601
71	0x3d3e4a92	0.046457835
72	0x3c8b11d0	0.016976267
73	0x3d046cd4	0.03233035
74	0xbba3d9b8	-0.0050003193
75	0x3cfd1c22	0.030897204
76	0xbc40d59a	-0.011769677
77	0xbd00927c	-0.0313897
78	0xbce5502e	-0.027992334
79	0x3b8e21a7	0.0043375078
80	0xbcea451c	-0.028597407
81	0x3c6d2bd7	0.014475784
82	0x3d10798e	0.035272174
83	0x3c465b55	0.012106736
84	0xbccaba1c	-0.024746947
85	0xbc175b36	-0.009238055
86	0x3d341825	0.04396834
87	0xbbf3dcd2	-0.0074420953
88	0x3d219689	0.039450202
89	0x3d0573b1	0.032581035
90	0x3d03cc18	0.03217706
91	0xbafe5150	-0.0019402895
92	0xbc527651	-0.012845592
93	0x3d82c46e	0.06385122
94	0x3c3f4584	0.011674289
95	0x3ca621f6	0.020279866
96	0xbcd59c86	-0.026075613
97	0x3b46fc8f	0.003036294
98	0x3d393a85	0.045221824
99	0x3d198339	0.03747866
100	0x3d293b0b	0.041316073
101	0xbd068b47	-0.03284767
102	0xbd352bae	-0.04423111
103	0x3d061b86	0.032741092
104	0x3ca691ba	0.02033316
105	0xbc088cf7	-0.00833439
106	0x3c481c20	0.012213737
107	0x3d74459e	0.059636705
108	0xbb0cb49a	-0.0021469952
109	0x3ce625ba	0.028094161
110	0xbd0945ee	-0.033513956
111	0xbcfc2294	-0.030778207
112	0xbc9857bb	-0.01859652
113	0x3d4b7b6a	0.049678244
114	0x3c93b385	0.018029938
115	0x3c022c11	0.007945077
116	0x3ccc648b	0.024950286
117	0x3cd4a035	0.025955299
118	0x3d721513	0.05910213
119	0x3cd641bd	0.026154393

fc2.weight f4 [84, 120]
0	0x3d039c48	0.032131463
1	0xbd4585d1	-0.04822332
2	0x3c813bee	0.015775647
3	0xbb6426c0	-0.0034813136
4	0x3d9adc24	0.0756152
5	0x3dc622ff	0.09674644
6	0xbdb0bd6f	-0.086298816
7	0xbd04b6d8	-0.032400936
8	0x3d58a0cc	0.052887723
9	0x3d6ce74d	0.057837773
10	0xbc76deda	-0.01506778
11	0xbb8067a6	-0.003918606
12	0x3d546cfb	0.051861744
13	0x3c94ef20	0.01818043
14	0x3db11645	0.08646826
15	0x3a3376f9	0.00068460364
16	0xbced124d	-0.02893939
17	0x3d1436fe	0.036185257
18	0xbd8f2dcd	-0.06991158
19	0xbd71235f	-0.058871623
20	0x3db31485	0.08744148
21	0x3c7cd1b4	0.0154308565
22	0xbcdc299c	-0.02687531
23	0x3dc0ddd5	0.09417311
24	0xbd88d5ad	-0.066813804
25	0x3becaefa	0.0072230073
26	0x3b13598c	0.0022483794
27	0xbd818682	-0.063244835
28	0xbd0fb63f	-0.035085913
29	0xbdbccbbc	-0.09218547
30	0x3c101623	0.00879434
31	0x3d317a74	0.04332967
32	0x3e02d1f5	0.12775405
33	0xbd4ee66a	-0.05051271
34	0x3d4fc890	0.05072838
35	0x3ccfa65d	0.025347883
36	0xbc8ba74e	-0.01704755
37	0xbdbae73c	-0.09126136
38	0xba81c41f	-0.0009900368
39	0x3cc7b2b0	0.024377197
40	0x3d065865	0.032799143
41	0x3cfd0daa	0.030890305
42	0xbda308f7	-0.07960694
43	0x3da3c81e	0.07997154
44	0xbd1423ee	-0.036167078
45	0x3dad1742	0.08451702
46	0xbd7b5f91	-0.061370436
47	0xbd965c3d	-0.07341812
48	0x3cbbeb34	0.022939302
49	0xbd833ceb	-0.064081036
50	0x3ba1e30c	0.004940396
51	0x3d71b42d	0.05900972
52	0xbd8fc612	-0.07020201
53	0xbd5e7b3b	-0.05431674
54	0x3cbd45f5	0.023104647
55	0xbd6b16dd	-0.05739485
56	0xbda5e6a6	-0.08100633
57	0x3d61eda7	0.055158284
58	0x3d8c731d	0.068578936
59	0x3dc02e12	0.09383787
60	0x3cda2f6c	0.02663394
61	0xbc129978	-0.008947723
62	0xbd927214	-0.07150665
63	0xbceaee3c	-0.028678052
64	0x3d51271d	0.051062692
65	0xbc9f821c	-0.01947122
66	0x3d1ebd06	0.038754486
67	0xbc94aee8	-0.018149808
68	0x3d92153a	0.07132955
69	0x3c8c7bdf	0.01714891
70	0x3d5c391b	0.053765398
71	0x3cbb2e00	0.022849083
72	0xbd7e25be	-0.062047713
73	0x3d8d3b25	0.068960465
74	0x3d1dbd8a	0.038510837
75	0xbda8b813	-0.08238234
76	0xbd9e626f	-0.077336185
77	0xbc435bdf	-0.011923759
78	0xbd005011	-0.031326357
79	0xbd1da06c	-0.03848307
80	0xbd86efdb	-0.065887176
81	0xbc2fb467	-0.010724164
82	0x3d06098b	0.032723945
83	0xbd3d83c6	-0.046268247
84	0xbd3cab79	-0.046061967
85	0x3d7f91d2	0.062394924
86	0x3d46fe27	0.048582222
87	0x3cfac044	0.030609258
88	0xbbf17421	-0.00736858
89	0x3d0b4e47	0.034010198
90	0xbda01bea	-0.07817824
91	0xbc3ec61b	-0.011643912
92	0xbcddd5b0	-0.027079433
93	0x3d331262	0.043718703
94	0xbd280ee5	-0.04102983
95	0xbdad1d31	-0.084528334
96	0x3d584b08	0.05280593
97	0xbd978e55	-0.074001946
98	0xbd4ee7d3	-0.050514054
99	0x3d8541dd	0.06506703
100	0xbcb84684	-0.022494562
101	0x3d70fea0	0.05883658
102	0xbdbe6174	-0.092959315
103	0xbb34251c	-0.002748794
104	0x3ba5adf9	0.0050561395
105	0xbc814964	-0.015782066
106	0xbb8d6480	-0.004314959
107	0x3d7b69f5	0.061380345
108	0xbca7160d	-0.020396257
109	0xbdcae267	-0.09906464
110	0x3ccd4381	0.025056602
111	0xbd0457e2	-0.032310374
112	0x3d70e356	0.058810554
113	0x3dcb81c5	0.09936861
114	0xbc32c666	-0.01091156
115	0xbd4fcc7d	-0.050732125
116	0xbc9839e5	-0.018582294
117	0xbd594991	-0.053048674
118	0x3d931fbb	0.071837865
119	0x3d34269f	0.043982144
120	0x3d6b5b1a	0.057459928
121	0xbc9a43d7	-0.018831177
122	0xbb61e7ac	-0.0034470363
123	0xbcfef51d	-0.031122738
124	0x3da642cb	0.081182085
125	0x3cf79f87	0.030227436
126	0xbc08ae99	-0.008342409
127	0x3cbf6eae	0.023368206
128	0x3d0dc95b	0.034615856
129	0xbd1a13c9	-0.037616525
130	0x3c501e74	0.012702573
131	0xbcb54993	-0.02212981
132	0xbcbf5720	-0.023356974
133	0x3c885ea2	0.016646687
134	0x3d932945	0.07185606
135	0x3d0e9173	0.03480668
136	0xbdb597e7	-0.08866864
137	0x3b267cb8	0.0025403928
138	0xbceab999	-0.028652953
139	0xbaa9c74d	-0.0012953073
140	0xbd45cb74	-0.04828973
141	0x3c15fd52	0.009154635
142	0x3d41f4c7	0.04735258
143	0xbd9bf58c	-0.07615194
144	0x3d4337da	0.047660686
145	0xbc9bb024	-0.019004889
146	0xbd9a21ac	-0.07525954
147	0xbd8c62ab	-0.06854757
148	0xbc0b1f83	-0.0084914
149	0xbd0f0a8e	-0.034922175
150	0xbc1a5b74	-0.009421218
151	0xbd6bda39	-0.05758116
152	0x3cc917c2	0.024547461
153	0x3dacf786	0.08445649
154	0xbd9569dd	-0.072955824
155	0xb9c739cb	-0.00037999297
156	0x3da99c4b	0.08281764
157	0xbc513b94	-0.012770552
158	0xbda24364	-0.0792301
159	0x3d3d4f18	0.046218008
160	0x3cab7662	0.020930473
161	0x3d6b07af	0.057380375
162	0x3daa8d52	0.08327736
163	0x3cba5034	0.022743322
164	0xbce9fa51	-0.028561743
165	0x3da58bde	0.08083318
166	0x3d00f415	0.031482775
167	0x3c4aa1ce	0.012367679
168	0x3ad29aa7	0.0016067819
169	0x3d044ad4	0.032297924
170	0xbc8b08c0	-0.016971946
171	0xbd952f2e	-0.072843894
172	0x3d442a01	0.04789162
173	0xbd3853cc	-0.04500179
174	0xbd850660	-0.064953566
175	0xbd13dbc1	-0.036098246
176	0xbd0aca1a	-0.033884145
177	0x3c83f33a	0.01610719
178	0xbd7edd40	-0.06222272
179	0xbd9e2ca6	-0.0772336
180	0x3ce0ff32	0.027465437
181	0xbd974dfe	-0.07387923
182	0x3da25ac2	0.07927467
183	0x3dba4a28	0.090961754
184	0xbd763dbc	-0.06011747
185	0xbda069f3	-0.07832708
186	0x3d87def6	0.06634323
187	0xbd9f1f2e	-0.07769619
188	0x3db667b4	0.089064986
189	0xbd5e6a27	-0.054300454
190	0x3d936e5d	0.071987845
191	0x3d97953f	0.07401513
192	0xbcb540d1	-0.022125633
193	0xbda6c839	-0.08143658
194	0xbdb62295	-0.08893315
195	0xbd1b3510	-0.0378924
196	0xbbddcca1	-0.0067687784
197	0xbdb4ec77	-0.088341646
198	0xbd8743d8	-0.06604737
199	0x3d8ffaca	0.07030256
200	0xbd8ee631	-0.06977499
201	0xbd068f89	-0.03285173
202	0x3d8b5c84	0.06804755
203	0x3d028a17	0.031869974
204	0xbb74fe8f	-0.0037383174
205	0xbd51f7d0	-0.051261723
206	0x3bf259e5	0.00739597
207	0xbd2ef09c	-0.04270993
208	0xbc5b689c	-0.01339164
209	0xbd8e609a	-0.06952019
210	0xbd94670e	-0.072462186
211	0x3d89e0cc	0.0673233
212	0x3b14b0ea	0.0022688457
213	0xbbc9ab14	-0.0061544273
214	0x3d9b3a7a	0.07579513
215	0xbcc49e69	-0.024001317
216	0xbaa42bc7	-0.0012525254
217	0x3d0370e3	0.03209008
218	0x3db979e9	0.09056456
219	0x3cf88ef3	0.030341601
220	0x3da1ae53	0.07894578
221	0xbcaa21c6	-0.020768058
222	0xbda7bac8	-0.081899226
223	0x3c801692	0.015635762
224	0xbb003f95	-0.0019569148
225	0x3d42d750	0.04756862
226	0x3dbb930c	0.09158906
227	0xbda0213e	-0.078188404
228	0x3d65b1ed	0.056077886
229	0xbd7071ed	-0.058702398
230	0x3d1131e4	0.03544797
231	0xbcf43f1a	-0.029815245
232	0xbc77fbe4	-0.015135739
233	0x3da06193	0.07831111
234	0xbc2bc575	-0.010484089
235	0xbd099257	-0.033586826
236	0xbbafcfaa	-0.0053653317
237	0x3d3f0584	0.04663612
238	0x3d274bd0	0.040843785
239	0x39b22cb9	0.00033984127
240	0xbd6deea9	-0.058088932
241	0xbcdbd78e	-0.026836183
242	0x3daf9718	0.08573741
243	0xbbe1f2c0	-0.006895393
244	0x3b47ff5a	0.0030517192
245	0xbd7fae2a	-0.062421955
246	0xbd3b6df0	-0.04575914
247	0xbd159221	-0.036516313
248	0xbc0a483c	-0.008440074
249	0xbd2020d1	-0.039093796
250	0x3d9aee2f	0.07564961
251	0x3d5e0d79	0.054212067
252	0x3d445eef	0.0479421
253	0xbd7df5cb	-0.062001985
254	0xbd9cc90d	-0.07655535
255	0x3d4a4238	0.049379557

fc2.bias f4 [84]
0	0x3d98d455	0.07462374
1	0x3d1bcaf0	0.038035333
2	0xbd159e99	-0.036528204
3	0xbcd431a8	-0.025902584
4	0x3ddd01c7	0.107913546
5	0xbd149552	-0.036275215
6	0x3c05aa79	0.00815832
7	0x3cbc3409	0.022974031
8	0x3d0e529e	0.03474676
9	0x3d36fd34	0.044675067
10	0x3dad6414	0.08466354
11	0xbcfb6c66	-0.030691337
12	0xbd34772f	-0.044058975
13	0xbce83e8f	-0.028350143
14	0x3d3687e0	0.044563174
15	0xbd4c4b7b	-0.04987667
16	0xbd1ecfc1	-0.03877235
17	0xbdc73e3d	-0.09728668
18	0xbd86a6b4	-0.06574765
19	0xbd99def2	-0.075132266
20	0x3df107a0	0.117690325
21	0xbdc82820	-0.09773278
22	0x3c58a19f	0.013222127
23	0x3c3d5c5d	0.011557666
24	0xbcf56f6c	-0.029960357
25	0xbd056d80	-0.03257513
26	0x3d1b5fff	0.037933346
27	0x3d30a7eb	0.04312889
28	0xbd2e2378	-0.042514294
29	0xbd966996	-0.07344358
30	0x3b0ce4b3	0.002149862
31	0x3dd799d4	0.10527387
32	0xbd97aef3	-0.07406416
33	0xbdb00bf2	-0.085960284
34	0x3b53993d	0.0032287382
35	0x3dbd092d	0.09230266
36	0xbd78540a	-0.06062702
37	0x3d17609c	0.03695737
38	0xbcef500c	-0.029212974
39	0x3d6cfca1	0.057858113
40	0xbd82077b	-0.06349083
41	0x3cf529ac	0.029927097
42	0x3c9c2a03	0.019063001
43	0x3afe14ef	0.0019384901
44	0xbd2df198	-0.04246673
45	0x3d4cf441	0.050037626
46	0x3dca9655	0.09891955
47	0x3d726fa1	0.05918849
48	0x3d0a3e55	0.03375085
49	0xbc23d8c4	-0.010000411
50	0x3d117a9b	0.035517316
51	0x3d74f91d	0.059807885
52	0xbb20a841	-0.002451435
53	0xbd735d08	-0.059414893
54	0x3d470663	0.048590075
55	0x3d7acd14	0.061230734
56	0x3d0e30ce	0.034714513
57	0x3dc4c085	0.09607033
58	0x3d2a62b2	0.04159803
59	0x3c666d02	0.014064075
60	0x3e155514	0.14583236
61	0xbb192d26	-0.0023372858
62	0xbcfe4217	-0.031037373
63	0xbb9b18de	-0.004733189
64	0x3d9bffa1	0.07617117
65	0x3d7bdfaa	0.0614926
66	0xbd3d84cc	-0.046269223
67	0xbc30e9cb	-0.010797928
68	0x3ce82e4f	0.028342394
69	0x3cbf0594	0.02331809
70	0x3d53c5e0	0.05170238
71	0xbab1cf68	-0.001356584
72	0xbc2fd7fb	-0.010732646
73	0xbc7ffe72	-0.015624629
74	0x3d7c94d7	0.061665382
75	0xbd3963e5	-0.045261282
76	0x3d1a5f04	0.03768827
77	0xbda9a96d	-0.082842685
78	0xbd304beb	-0.04304115
79	0xbd46d291	-0.048540656
80	0x3dd52b3f	0.10408639
81	0x3d16c9de	0.03681361
82	0x3db12bb7	0.08650916
83	0xbdb09601	-0.08622361

fc3.weight f4 [10, 84]
0	0xbdb245e6	-0.08704738
1	0x3dc97a9b	0.09837838
2	0x3df6f2c0	0.1205802
3	0xbd0072f7	-0.03135964
4	0xbe2c9716	-0.1685451
5	0xbdffbe70	-0.12487495
6	0xbdb6c1f7	-0.089237146
7	0x3dcfe14e	0.10150395
8	0xbd81c5e4	-0.06336573
9	0xbe23c97b	-0.15994827
10	0x3df30fb0	0.118682265
11	0xbcd850ae	-0.026405659
12	0x3d065854	0.03279908
13	0x3a373c89	0.00069899164
14	0xbd176dff	-0.036970135
15	0x3d921d5e	0.071345076
16	0xbdb166ab	-0.086621605
17	0x3d242e58	0.04008326
18	0xbd067861	-0.032829646
19	0xbc08329d	-0.008312848
20	0x3dc0dc1f	0.09416985
21	0xbdc42c2a	-0.09578736
22	0x3ddfec4a	0.109337404
23	0x3d9bfa00	0.07616043
24	0xbce34dcb	-0.027747056
25	0x3dacb9e0	0.0843389
26	0xbe13fe0a	-0.14452377
27	0xbd7f50ab	-0.06233279
28	0x3c3799e0	0.01120612
29	0x3d97a7bc	0.0740504
30	0x3db07977	0.086169176
31	0xbe098db7	-0.13432966
32	0x3ddca18a	0.10772999
33	0x3d14d3ac	0.03633468
34	0xbd7eb73e	-0.062186472
35	0x3d207942	0.03917814
36	0xbdb8be98	-0.09020728
37	0x3d02c576	0.031926595
38	0xbc16b77f	-0.009199022
39	0x3d92f9bd	0.0717654
40	0x3ce958f9	0.028484808
41	0xbd2a68f8	-0.041604012
42	0x3cb03d70	0.02151367
43	0xbdbb524d	-0.09146557
44	0x3de90367	0.11377602
45	0x3d5900c4	0.052979246
46	0xbe1b5a15	-0.15171082
47	0xbd56823f	-0.052370306
48	0xbc86399e	-0.016384896
49	0x3d3ec5bd	0.046575297
50	0xbd45c876	-0.048286878
51	0xbdb5181c	-0.08842489
52	0x3ce82a7e	0.028340574
53	0x3d1bea22	0.038065083
54	0x3d57872a	0.052619137
55	0xbd04b6af	-0.032400783
56	0x3c8b4f73	0.017005658
57	0x3d47781c	0.04869853
58	0x3cb007cd	0.021488095
59	0x3da19641	0.07889987
60	0xbe1e1ab1	-0.1543987
61	0x3da1bb57	0.0789706
62	0xbd82b10f	-0.063814275
63	0x3d9602fa	0.073247865
64	0xbcc01d3a	-0.023451436
65	0x3cdc2683	0.026873833
66	0x3e1377a6	0.14401111
67	0xbd08d435	-0.0334055
68	0x3da6ac00	0.08138275
69	0xbdedfb21	-0.11620165
70	0x3dd5cbc8	0.10439259
71	0xbc450c5d	-0.012026873
72	0xbd117d7a	-0.035520054
73	0x3d8953d5	0.06705443
74	0xbcbd4be7	-0.023107482
75	0x3e289efe	0.164669
76	0xbda6acd9	-0.08138437
77	0x3e09fac6	0.13474569
78	0x3dc9e6bc	0.09858462
79	0x3dc259fe	0.09489821
80	0xbd1a670c	-0.03769593
81	0xbae54536	-0.001749194
82	0x3d8f6b1a	0.0700285
83	0x3d82b7be	0.06382702
84	0xbdd7a237	-0.10528987
85	0x3d3b881b	0.045784097
86	0x3cb41914	0.021984614
87	0x3dca0c0a	0.098655775
88	0x3d0e7024	0.034774914
89	0xbdb21777	-0.08695882
90	0x3c50cd2a	0.012744227
91	0xbdaf5b79	-0.08562369
92	0xbd08f01c	-0.03343211
93	0xbdac3a4d	-0.084095575
94	0x3deb5ced	0.114923336
95	0xbdcc7ba7	-0.09984522
96	0xbd4a298b	-0.049356025
97	0x3d99a4ae	0.07502113
98	0x3dceac76	0.10091488
99	0xbdad0579	-0.084483095
100	0x3dbeece6	0.093225285
101	0xbda6369b	-0.08115884
102	0x3d1d1df1	0.038358632
103	0xbcbe69a5	-0.023243735
104	0xbd4d473d	-0.050116766
105	0xbda49aba	-0.08037324
106	0xbdc07130	-0.09396589
107	0xbdbbac45	-0.09163717
108	0x3d546a43	0.05185915
109	0xbdd67e7d	-0.104733445
110	0xbc1bd880	-0.009512067
111	0x3d4cef56	0.050032936
112	0x3d66583e	0.056236498
113	0xbb58587e	-0.003301173
114	0xbd45e8fb	-0.04831789
115	0x3c93d7c2	0.018047217
116	0xbd16561d	-0.036703218
117	0xbd2ce49c	-0.042210206
118	0x3e00eb97	0.1258987
119	0xbb6bd93a	-0.0035987631
120	0x3d362a35	0.044473846
121	0x3d0e35d2	0.034719296
122	0x3d33e2a3	0.04391731
123	0xbca51802	-0.02015305
124	0x3d96e786	0.07368378
125	0xbd43becc	-0.04778938
126	0xbd8e10fb	-0.069368325
127	0xbb890002	-0.004180909
128	0x3de0a300	0.1096859
129	0xbd230a99	-0.03980503
130	0x3e0c5d01	0.13707353
131	0xbdc191de	-0.0945165
132	0x3df436e0	0.11924529
133	0x3da42437	0.0801472
134	0xbda0820a	-0.07837303
135	0x3ce7773b	0.028255096
136	0x3c879167	0.016548825
137	0xbd9b4649	-0.07581765
138	0x3e129dec	0.14318055
139	0xbdea6477	-0.114449434
140	0x3deb239e	0.11481403
141	0x3df88d56	0.12136333
142	0xbc201ca1	-0.009772451
143	0xbd84dfdb	-0.064880095
144	0xbdfd5861	-0.123703726
145	0x3d85e33e	0.06537484
146	0xbd61c2c5	-0.055117387
147	0x3d86ad99	0.0657608
148	0xbcc02c72	-0.023458693
149	0xbdc2f044	-0.09518483
150	0xbc3d1d40	-0.011542618
151	0x3da1ed9a	0.07906647
152	0xbe0848f6	-0.13309082
153	0xbdb44259	-0.08801717
154	0xbdc8196c	-0.09770474
155	0xbd6b0ed6	-0.057387196
156	0xbd77cc9b	-0.06049786
157	0xbd61a933	-0.055093
158	0xbcf0787f	-0.029354332
159	0x3d546b96	0.051860414
160	0xbd064a39	-0.032785628
161	0x3dcfde74	0.101498514
162	0xbdaa527d	-0.08316515
163	0x3da31e54	0.07964769
164	0x3d6a5b73	0.05721612
165	0x3d2cdee7	0.042204764
166	0xbde8fb87	-0.113761
167	0xbc61b5da	-0.013776267
168	0xbd09600a	-0.033538856
169	0x3d8c2da5	0.068446435
170	0x3dc0f661	0.09421993
171	0xbce69803	-0.028148657
172	0x3d10e0b5	0.035370547
173	0x3d79346f	0.06084102
174	0x3d0b6546	0.03403213
175	0x3dd04f64	0.101713926
176	0x3e011772	0.126066
177	0x3cb851a3	0.022499865
178	0xbc635c17	-0.013876936
179	0x3da92e2d	0.082607605
180	0xbd7f30be	-0.062302344
181	0xbd634764	-0.055488005
182	0x3d64fb59	0.055903766
183	0xbd12f269	-0.03587571
184	0x3d6c5c7a	0.05770538
185	0xbdbd6c37	-0.09249156
186	0x3c8ca435	0.017168144
187	0xbaa634ff	-0.0012680589
188	0x3c2a2ce7	0.010386682
189	0xbda770fa	-0.081758454
190	0x3cac21ee	0.021012273
191	0xbd4ee99e	-0.050515763
192	0xbd887b9c	-0.066642016
193	0xbcbe21f9	-0.023209559
194	0xbda308b8	-0.07960647
195	0x3c65da08	0.0140290335
196	0xbdc2e9d5	-0.09517256
197	0x3b0f32ab	0.0021850269
198	0x3dd870a8	0.105683625
199	0x3cc5559c	0.024088673
200	0x3b28746b	0.0025704156
201	0x3c411b03	0.011786225
202	0x3d43b798	0.04778251
203	0x3de4d1e9	0.1117285
204	0x3d912906	0.07087903
205	0xbda4595b	-0.08024856
206	0x3db99e60	0.09063411
207	0x3da4406b	0.08020099
208	0xbd0c974e	-0.034323983
209	0xbd4af9fb	-0.049554806
210	0xbc91306f	-0.01772329
211	0xbd783007	-0.060592677
212	0xbd1b7c59	-0.037960384
213	0x3c1d6a29	0.00960783
214	0xbc6c27fa	-0.014413828
215	0x3db84f31	0.089994796
216	0x3a4f61ad	0.0007910978
217	0xbb5548a3	-0.0032544516
218	0x3b03fd81	0.0020140114
219	0xbdcf1ad4	-0.10112539
220	0x3d0b23ba	0.03396962
221	0x3dc8adc5	0.09798769
222	0x3bcfba4b	0.0063393465
223	0x3e16a73e	0.14712235
224	0x3d0bda16	0.03414353
225	0x3dbb968c	0.09159574
226	0xbcc3c15d	-0.023895914
227	0x3e15b03b	0.14618008
228	0x3d98527c	0.07437608
229	0x3dc4dc21	0.09612299
230	0xbdc1bb50	-0.09459555
231	0x3d4a399c	0.049371347
232	0x3dd93379	0.10605521
233	0x3d7682db	0.060183387
234	0xbd54c9e0	-0.051950336
235	0xbe01f0fd	-0.12689586
236	0x3d7ffcc1	0.062496904
237	0xbcf8d1af	-0.030373422
238	0xbd5bfe62	-0.053709395
239	0xbe1025f5	-0.1407698
240	0xbdb021e1	-0.08600212
241	0x3d82b942	0.063829914
242	0x3dbaa04a	0.09112604
243	0xbda51249	-0.08060128
244	0xbca63cf5	-0.020292738
245	0xbc28d3e6	-0.010304427
246	0x3ddf1079	0.10891814
247	0x3d8d5585	0.06901077
248	0xbb72a20c	-0.0037022857
249	0xbd9f9e8b	-0.077939115
250	0x3dcd1173	0.10013094
251	0xbd944b5b	-0.072409354
252	0x3dfad895	0.12248341
253	0x3d4536be	0.04814791
254	0x3debebef	0.1151961
255	0xbd14d797	-0.036338415

fc3.bias f4 [10]
0	0xbe3103be	-0.17286584
1	0xbdc820b4	-0.097718626
2	0x3d7d390f	0.061821993
3	0x3ca47482	0.020075087
4	0x3e3f232b	0.1866576
5	0x3de7f706	0.11326413
6	0x3e09cf32	0.13457945
7	0x3922ea34	0.00015536771
8	0xbe163c58	-0.14671457
9	0xbde45ad5	-0.11150137
